…
average_loss: 100
iter_size: 2
I1210 11:39:34.683539 29721 solver.cpp:81] Creating training net from train_net file: models/pascal_voc/VGG16/faster_rcnn_end2end/train.prototxt
I1210 11:39:34.684866 29721 net.cpp:49] Initializing net from parameters: 
name: "VGG_ILSVRC_16_layers"
state {
  phase: TRAIN
}
layer {
  name: "input-data"
  type: "Python"
  top: "data"
  top: "im_info"
  top: "gt_boxes"
  top: "seg_mask_inds"
  top: "flipped"
  python_param {
    module: "roi_data_layer.layer"
    layer: "RoIDataLayer"
    param_str: "\'num_classes\': 18"
  }
}
layer {
  name: "conv1_1"
  type: "Convolution"
  bottom: "data"
  top: "conv1_1"
  param {
    lr_mult: 0
    decay_mult: 0
  }
  param {
    lr_mult: 0
    decay_mult: 0
  }
  convolution_param {
    num_output: 64
    pad: 1
    kernel_size: 3
  }
}
layer {
  name: "relu1_1"
  type: "ReLU"
  bottom: "conv1_1"
  top: "conv1_1"
}
layer {
  name: "conv1_2"
  type: "Convolution"
  bottom: "conv1_1"
  top: "conv1_2"
  param {
    lr_mult: 0
    decay_mult: 0
  }
  param {
    lr_mult: 0
    decay_mult: 0
  }
  convolution_param {
    num_output: 64
    pad: 1
    kernel_size: 3
  }
}
layer {
  name: "relu1_2"
  type: "ReLU"
  bottom: "conv1_2"
  top: "conv1_2"
}
layer {
  name: "pool1"
  type: "Pooling"
  bottom: "conv1_2"
  top: "pool1"
  pooling_param {
    pool: MAX
    kernel_size: 2
    stride: 2
  }
}
layer {
  name: "conv2_1"
  type: "Convolution"
  bottom: "pool1"
  top: "conv2_1"
  param {
    lr_mult: 0
    decay_mult: 0
  }
  param {
    lr_mult: 0
    decay_mult: 0
  }
  convolution_param {
    num_output: 128
    pad: 1
    kernel_size: 3
  }
}
layer {
  name: "relu2_1"
  type: "ReLU"
  bottom: "conv2_1"
  top: "conv2_1"
}
layer {
  name: "conv2_2"
  type: "Convolution"
  bottom: "conv2_1"
  top: "conv2_2"
  param {
    lr_mult: 0
    decay_mult: 0
  }
  param {
    lr_mult: 0
    decay_mult: 0
  }
  convolution_param {
    num_output: 128
    pad: 1
    kernel_size: 3
  }
}
layer {
  name: "relu2_2"
  type: "ReLU"
  bottom: "conv2_2"
  top: "conv2_2"
}
layer {
  name: "pool2"
  type: "Pooling"
  bottom: "conv2_2"
  top: "pool2"
  pooling_param {
    pool: MAX
    kernel_size: 2
    stride: 2
  }
}
layer {
  name: "conv3_1"
  type: "Convolution"
  bottom: "pool2"
  top: "conv3_1"
  param {
    lr_mult: 1
  }
  param {
    lr_mult: 2
  }
  convolution_param {
    num_output: 256
    pad: 1
    kernel_size: 3
  }
}
layer {
  name: "relu3_1"
  type: "ReLU"
  bottom: "conv3_1"
  top: "conv3_1"
}
layer {
  name: "conv3_2"
  type: "Convolution"
  bottom: "conv3_1"
  top: "conv3_2"
  param {
    lr_mult: 1
  }
  param {
    lr_mult: 2
  }
  convolution_param {
    num_output: 256
    pad: 1
    kernel_size: 3
  }
}
layer {
  name: "relu3_2"
  type: "ReLU"
  bottom: "conv3_2"
  top: "conv3_2"
}
layer {
  name: "conv3_3"
  type: "Convolution"
  bottom: "conv3_2"
  top: "conv3_3"
  param {
    lr_mult: 1
  }
  param {
    lr_mult: 2
  }
  convolution_param {
    num_output: 256
    pad: 1
    kernel_size: 3
  }
}
layer {
  name: "relu3_3"
  type: "ReLU"
  bottom: "conv3_3"
  top: "conv3_3"
}
layer {
  name: "pool3"
  type: "Pooling"
  bottom: "conv3_3"
  top: "pool3"
  pooling_param {
    pool: MAX
    kernel_size: 2
    stride: 2
  }
}
layer {
  name: "conv4_1"
  type: "Convolution"
  bottom: "pool3"
  top: "conv4_1"
  param {
    lr_mult: 1
  }
  param {
    lr_mult: 2
  }
  convolution_param {
    num_output: 512
    pad: 1
    kernel_size: 3
  }
}
layer {
  name: "relu4_1"
  type: "ReLU"
  bottom: "conv4_1"
  top: "conv4_1"
}
layer {
  name: "conv4_2"
  type: "Convolution"
  bottom: "conv4_1"
  top: "conv4_2"
  param {
    lr_mult: 1
  }
  param {
    lr_mult: 2
  }
  convolution_param {
    num_output: 512
    pad: 1
    kernel_size: 3
  }
}
layer {
  name: "relu4_2"
  type: "ReLU"
  bottom: "conv4_2"
  top: "conv4_2"
}
layer {
  name: "conv4_3"
  type: "Convolution"
  bottom: "conv4_2"
  top: "conv4_3"
  param {
    lr_mult: 1
  }
  param {
    lr_mult: 2
  }
  convolution_param {
    num_output: 512
    pad: 1
    kernel_size: 3
  }
}
layer {
  name: "relu4_3"
  type: "ReLU"
  bottom: "conv4_3"
  top: "conv4_3"
}
layer {
  name: "pool4"
  type: "Pooling"
  bottom: "conv4_3"
  top: "pool4"
  pooling_param {
    pool: MAX
    kernel_size: 2
    stride: 2
  }
}
layer {
  name: "conv5_1"
  type: "Convolution"
  bottom: "pool4"
  top: "conv5_1"
  param {
    lr_mult: 1
  }
  param {
    lr_mult: 2
  }
  convolution_param {
    num_output: 512
    pad: 1
    kernel_size: 3
  }
}
layer {
  name: "relu5_1"
  type: "ReLU"
  bottom: "conv5_1"
  top: "conv5_1"
}
layer {
  name: "conv5_2"
  type: "Convolution"
  bottom: "conv5_1"
  top: "conv5_2"
  param {
    lr_mult: 1
  }
  param {
    lr_mult: 2
  }
  convolution_param {
    num_output: 512
    pad: 1
    kernel_size: 3
  }
}
layer {
  name: "relu5_2"
  type: "ReLU"
  bottom: "conv5_2"
  top: "conv5_2"
}
layer {
  name: "conv5_3"
  type: "Convolution"
  bottom: "conv5_2"
  top: "conv5_3"
  param {
    lr_mult: 1
  }
  param {
    lr_mult: 2
  }
  convolution_param {
    num_output: 512
    pad: 1
    kernel_size: 3
  }
}
layer {
  name: "relu5_3"
  type: "ReLU"
  bottom: "conv5_3"
  top: "conv5_3"
}
layer {
  name: "rpn_conv/3x3"
  type: "Convolution"
  bottom: "conv5_3"
  top: "rpn/output"
  param {
    lr_mult: 1
  }
  param {
    lr_mult: 2
  }
  convolution_param {
    num_output: 512
    pad: 1
    kernel_size: 3
    stride: 1
    weight_filler {
      type: "gaussian"
      std: 0.01
    }
    bias_filler {
      type: "constant"
      value: 0
    }
  }
}
layer {
  name: "rpn_relu/3x3"
  type: "ReLU"
  bottom: "rpn/output"
  top: "rpn/output"
}
layer {
  name: "rpn_cls_score"
  type: "Convolution"
  bottom: "rpn/output"
  top: "rpn_cls_score"
  param {
    lr_mult: 1
  }
  param {
    lr_mult: 2
  }
  convolution_param {
    num_output: 30
    pad: 0
    kernel_size: 1
    stride: 1
    weight_filler {
      type: "gaussian"
      std: 0.01
    }
    bias_filler {
      type: "constant"
      value: 0
    }
  }
}
layer {
  name: "rpn_bbox_pred"
  type: "Convolution"
  bottom: "rpn/output"
  top: "rpn_bbox_pred"
  param {
    lr_mult: 1
  }
  param {
    lr_mult: 2
  }
  convolution_param {
    num_output: 60
    pad: 0
    kernel_size: 1
    stride: 1
    weight_filler {
      type: "gaussian"
      std: 0.01
    }
    bias_filler {
      type: "constant"
      value: 0
    }
  }
}
layer {
  name: "rpn_cls_score_reshape"
  type: "Reshape"
  bottom: "rpn_cls_score"
  top: "rpn_cls_score_reshape"
  reshape_param {
    shape {
      dim: 0
      dim: 2
      dim: -1
      dim: 0
    }
  }
}
layer {
  name: "rpn-data"
  type: "Python"
  bottom: "rpn_cls_score"
  bottom: "gt_boxes"
  bottom: "im_info"
  bottom: "data"
  top: "rpn_labels"
  top: "rpn_bbox_targets"
  top: "rpn_bbox_inside_weights"
  top: "rpn_bbox_outside_weights"
  python_param {
    module: "rpn.anchor_target_layer"
    layer: "AnchorTargetLayer"
    param_str: "\'feat_stride\': 16 \n\'scales\': !!python/tuple [2, 4, 8, 16, 32]"
  }
}
layer {
  name: "rpn_loss_cls"
  type: "SoftmaxWithLoss"
  bottom: "rpn_cls_score_reshape"
  bottom: "rpn_labels"
  top: "rpn_cls_loss"
  loss_weight: 1
  propagate_down: true
  propagate_down: false
  loss_param {
    ignore_label: -1
    normalize: true
  }
}
layer {
  name: "rpn_loss_bbox"
  type: "SmoothL1Loss"
  bottom: "rpn_bbox_pred"
  bottom: "rpn_bbox_targets"
  bottom: "rpn_bbox_inside_weights"
  bottom: "rpn_bbox_outside_weights"
  top: "rpn_loss_bbox"
  loss_weight: 1
  smooth_l1_loss_param {
    sigma: 3
  }
}
layer {
  name: "rpn_cls_prob"
  type: "Softmax"
  bottom: "rpn_cls_score_reshape"
  top: "rpn_cls_prob"
}
layer {
  name: "rpn_cls_prob_reshape"
  type: "Reshape"
  bottom: "rpn_cls_prob"
  top: "rpn_cls_prob_reshape"
  reshape_param {
    shape {
      dim: 0
      dim: 30
      dim: -1
      dim: 0
    }
  }
}
layer {
  name: "proposal"
  type: "Python"
  bottom: "rpn_cls_prob_reshape"
  bottom: "rpn_bbox_pred"
  bottom: "im_info"
  top: "rpn_rois"
  python_param {
    module: "rpn.proposal_layer"
    layer: "ProposalLayer"
    param_str: "\'feat_stride\': 16 \n\'scales\': !!python/tuple [2, 4, 8, 16, 32]"
  }
}
layer {
  name: "roi-data"
  type: "Python"
  bottom: "rpn_rois"
  bottom: "gt_boxes"
  bottom: "im_info"
  bottom: "seg_mask_inds"
  bottom: "flipped"
  top: "rois"
  top: "labels"
  top: "bbox_targets"
  top: "bbox_inside_weights"
  top: "bbox_outside_weights"
  top: "mask_targets"
  top: "rois_pos"
  python_param {
    module: "rpn.proposal_target_layer"
    layer: "ProposalTargetLayer"
    param_str: "\'num_classes\': 18"
  }
}
layer {
  name: "roi_pool5"
  type: "ROIAlignment"
  bottom: "conv5_3"
  bottom: "rois"
  top: "pool5"
  roi_alignment_param {
    pooled_h: 7
    pooled_w: 7
    spatial_scale: 0.0625
  }
}
layer {
  name: "fc6"
  type: "InnerProduct"
  bottom: "pool5"
  top: "fc6"
  param {
    lr_mult: 1
  }
  param {
    lr_mult: 2
  }
  inner_product_param {
    num_output: 4096
  }
}
layer {
  name: "relu6"
  type: "ReLU"
  bottom: "fc6"
  top: "fc6"
}
layer {
  name: "fc7"
  type: "InnerProduct"
  bottom: "fc6"
  top: "fc7"
  param {
    lr_mult: 1
  }
  param {
    lr_mult: 2
  }
  inner_product_param {
    num_output: 4096
  }
}
layer {
  name: "relu7"
  type: "ReLU"
  bottom: "fc7"
  top: "fc7"
}
layer {
  name: "cls_score"
  type: "InnerProduct"
  bottom: "fc7"
  top: "cls_score"
  param {
    lr_mult: 1
  }
  param {
    lr_mult: 2
  }
  inner_product_param {
    num_output: 18
    weight_filler {
      type: "gaussian"
      std: 0.01
    }
    bias_filler {
      type: "constant"
      value: 0
    }
  }
}
layer {
  name: "bbox_pred"
  type: "InnerProduct"
  bottom: "fc7"
  top: "bbox_pred"
  param {
    lr_mult: 1
  }
  param {
    lr_mult: 2
  }
  inner_product_param {
    num_output: 72
    weight_filler {
      type: "gaussian"
      std: 0.001
    }
    bias_filler {
      type: "constant"
      value: 0
    }
  }
}
layer {
  name: "loss_cls"
  type: "SoftmaxWithLoss"
  bottom: "cls_score"
  bottom: "labels"
  top: "loss_cls"
  loss_weight: 3
  propagate_down: true
  propagate_down: false
}
layer {
  name: "loss_bbox"
  type: "SmoothL1Loss"
  bottom: "bbox_pred"
  bottom: "bbox_targets"
  bottom: "bbox_inside_weights"
  bottom: "bbox_outside_weights"
  top: "loss_bbox"
  loss_weight: 2
}
layer {
  name: "roi_pool5_2"
  type: "ROIAlignment"
  bottom: "conv5_3"
  bottom: "rois_pos"
  top: "pool5_2"
  roi_alignment_param {
    pooled_h: 7
    pooled_w: 7
    spatial_scale: 0.0625
  }
}
layer {
  name: "pool5_2_conv"
  type: "Convolution"
  bottom: "pool5_2"
  top: "pool5_2_conv"
  param {
    lr_mult: 1
    decay_mult: 1
  }
  param {
    lr_mult: 2
    decay_mult: 0
  }
  convolution_param {
    num_output: 512
    pad: 0
    kernel_size: 1
    weight_filler {
      type: "gaussian"
      std: 0.01
    }
    bias_filler {
      type: "constant"
      value: 0
    }
  }
}
layer {
  name: "pool5_2_conv_relu"
  type: "ReLU"
  bottom: "pool5_2_conv"
  top: "pool5_2_conv_relu"
}
layer {
  name: "pool5_2_conv2"
  type: "Convolution"
  bottom: "pool5_2_conv_relu"
  top: "pool5_2_conv2"
  param {
    lr_mult: 1
    decay_mult: 1
  }
  param {
    lr_mult: 2
    decay_mult: 0
  }
  convolution_param {
    num_output: 512
    pad: 1
    kernel_size: 3
    stride: 1
    weight_filler {
      type: "gaussian"
      std: 0.01
    }
    bias_filler {
      type: "constant"
      value: 0
    }
  }
}
layer {
  name: "pool5_2_conv2_relu"
  type: "ReLU"
  bottom: "pool5_2_conv2"
  top: "pool5_2_conv2_relu"
}
layer {
  name: "mask_deconv1"
  type: "Deconvolution"
  bottom: "pool5_2_conv2_relu"
  top: "mask_deconv1"
  param {
    lr_mult: 1
    decay_mult: 1
  }
  param {
    lr_mult: 2
    decay_mult: 0
  }
  convolution_param {
    num_output: 256
    pad: 1
    kernel_size: 8
    group: 256
    stride: 4
    weight_filler {
      type: "bilinear"
    }
  }
}
layer {
  name: "pool5_2_conv3"
  type: "Convolution"
  bottom: "mask_deconv1"
  top: "pool5_2_conv3"
  param {
    lr_mult: 1
    decay_mult: 1
  }
  param {
    lr_mult: 2
    decay_mult: 0
  }
  convolution_param {
    num_output: 512
    pad: 1
    kernel_size: 3
    stride: 1
    weight_filler {
      type: "gaussian"
      std: 0.01
    }
    bias_filler {
      type: "constant"
      value: 0
    }
  }
}
layer {
  name: "pool5_2_conv3_relu"
  type: "ReLU"
  bottom: "pool5_2_conv3"
  top: "pool5_2_conv3_relu"
}
layer {
  name: "pool5_2_conv4"
  type: "Convolution"
  bottom: "pool5_2_conv3_relu"
  top: "pool5_2_conv4"
  param {
    lr_mult: 1
    decay_mult: 1
  }
  param {
    lr_mult: 2
    decay_mult: 0
  }
  convolution_param {
    num_output: 512
    pad: 1
    kernel_size: 3
    stride: 1
    weight_filler {
      type: "gaussian"
      std: 0.01
    }
    bias_filler {
      type: "constant"
      value: 0
    }
  }
}
layer {
  name: "pool5_2_conv4_relu"
  type: "ReLU"
  bottom: "pool5_2_conv4"
  top: "pool5_2_conv4_relu"
}
layer {
  name: "mask_deconv2"
  type: "Deconvolution"
  bottom: "pool5_2_conv4_relu"
  top: "mask_deconv2"
  param {
    lr_mult: 1
    decay_mult: 1
  }
  param {
    lr_mult: 2
    decay_mult: 0
  }
  convolution_param {
    num_output: 256
    pad: 1
    kernel_size: 8
    group: 256
    stride: 4
    weight_filler {
      type: "bilinear"
    }
  }
}
layer {
  name: "pool5_2_conv5"
  type: "Convolution"
  bottom: "mask_deconv2"
  top: "pool5_2_conv5"
  param {
    lr_mult: 1
    decay_mult: 1
  }
  param {
    lr_mult: 2
    decay_mult: 0
  }
  convolution_param {
    num_output: 512
    pad: 1
    kernel_size: 3
    stride: 1
    weight_filler {
      type: "gaussian"
      std: 0.01
    }
    bias_filler {
      type: "constant"
      value: 0
    }
  }
}
layer {
  name: "pool5_2_conv5_relu"
  type: "ReLU"
  bottom: "pool5_2_conv5"
  top: "pool5_2_conv5_relu"
}
layer {
  name: "pool5_2_conv6"
  type: "Convolution"
  bottom: "pool5_2_conv5_relu"
  top: "pool5_2_conv6"
  param {
    lr_mult: 1
    decay_mult: 1
  }
  param {
    lr_mult: 2
    decay_mult: 0
  }
  convolution_param {
    num_output: 512
    pad: 1
    kernel_size: 3
    stride: 1
    weight_filler {
      type: "gaussian"
      std: 0.01
    }
    bias_filler {
      type: "constant"
      value: 0
    }
  }
}
layer {
  name: "pool5_2_conv6_relu"
  type: "ReLU"
  bottom: "pool5_2_conv6"
  top: "pool5_2_conv6_relu"
}
layer {
  name: "mask_deconv3"
  type: "Deconvolution"
  bottom: "pool5_2_conv6_relu"
  top: "mask_deconv3"
  param {
    lr_mult: 1
    decay_mult: 1
  }
  param {
    lr_mult: 2
    decay_mult: 0
  }
  convolution_param {
    num_output: 256
    pad: 1
    kernel_size: 4
    group: 256
    stride: 2
    weight_filler {
      type: "bilinear"
    }
  }
}
layer {
  name: "mask_score"
  type: "Convolution"
  bottom: "mask_deconv3"
  top: "mask_score"
  param {
    lr_mult: 1
    decay_mult: 1
  }
  param {
    lr_mult: 2
    decay_mult: 0
  }
  convolution_param {
    num_output: 8
    pad: 0
    kernel_size: 1
    weight_filler {
      type: "gaussian"
      std: 0.01
    }
    bias_filler {
      type: "constant"
      value: 0
    }
  }
}
layer {
  name: "loss_mask"
  type: "SoftmaxWithLoss"
  bottom: "mask_score"
  bottom: "mask_targets"
  top: "loss_mask"
  loss_weight: 3
  propagate_down: true
  propagate_down: false
  loss_param {
    ignore_label: -1
    normalize: true
  }
}
I1210 11:39:34.685115 29721 layer_factory.hpp:77] Creating layer input-data
I1210 11:39:34.695756 29721 net.cpp:106] Creating Layer input-data
I1210 11:39:34.695777 29721 net.cpp:411] input-data -> data
I1210 11:39:34.695786 29721 net.cpp:411] input-data -> im_info
I1210 11:39:34.695791 29721 net.cpp:411] input-data -> gt_boxes
I1210 11:39:34.695796 29721 net.cpp:411] input-data -> seg_mask_inds
I1210 11:39:34.695801 29721 net.cpp:411] input-data -> flipped
RoiDataLayer: name_to_top: {'gt_boxes': 2, 'data': 0, 'seg_mask_inds': 3, 'im_info': 1, 'flipped': 4}
I1210 11:39:34.709486 29721 net.cpp:150] Setting up input-data
I1210 11:39:34.709504 29721 net.cpp:157] Top shape: 1 3 600 1000 (1800000)
I1210 11:39:34.709508 29721 net.cpp:157] Top shape: 1 3 (3)
I1210 11:39:34.709512 29721 net.cpp:157] Top shape: 1 4 (4)
I1210 11:39:34.709517 29721 net.cpp:157] Top shape: 1 2 (2)
I1210 11:39:34.709519 29721 net.cpp:157] Top shape: 1 1 (1)
I1210 11:39:34.709522 29721 net.cpp:165] Memory required for data: 7200040
I1210 11:39:34.709527 29721 layer_factory.hpp:77] Creating layer data_input-data_0_split
I1210 11:39:34.709542 29721 net.cpp:106] Creating Layer data_input-data_0_split
I1210 11:39:34.709545 29721 net.cpp:454] data_input-data_0_split <- data
I1210 11:39:34.709551 29721 net.cpp:411] data_input-data_0_split -> data_input-data_0_split_0
I1210 11:39:34.709558 29721 net.cpp:411] data_input-data_0_split -> data_input-data_0_split_1
I1210 11:39:34.709586 29721 net.cpp:150] Setting up data_input-data_0_split
I1210 11:39:34.709592 29721 net.cpp:157] Top shape: 1 3 600 1000 (1800000)
I1210 11:39:34.709596 29721 net.cpp:157] Top shape: 1 3 600 1000 (1800000)
I1210 11:39:34.709599 29721 net.cpp:165] Memory required for data: 21600040
I1210 11:39:34.709601 29721 layer_factory.hpp:77] Creating layer im_info_input-data_1_split
I1210 11:39:34.709605 29721 net.cpp:106] Creating Layer im_info_input-data_1_split
I1210 11:39:34.709609 29721 net.cpp:454] im_info_input-data_1_split <- im_info
I1210 11:39:34.709612 29721 net.cpp:411] im_info_input-data_1_split -> im_info_input-data_1_split_0
I1210 11:39:34.709617 29721 net.cpp:411] im_info_input-data_1_split -> im_info_input-data_1_split_1
I1210 11:39:34.709622 29721 net.cpp:411] im_info_input-data_1_split -> im_info_input-data_1_split_2
I1210 11:39:34.709650 29721 net.cpp:150] Setting up im_info_input-data_1_split
I1210 11:39:34.709656 29721 net.cpp:157] Top shape: 1 3 (3)
I1210 11:39:34.709659 29721 net.cpp:157] Top shape: 1 3 (3)
I1210 11:39:34.709663 29721 net.cpp:157] Top shape: 1 3 (3)
I1210 11:39:34.709666 29721 net.cpp:165] Memory required for data: 21600076
I1210 11:39:34.709668 29721 layer_factory.hpp:77] Creating layer gt_boxes_input-data_2_split
I1210 11:39:34.709672 29721 net.cpp:106] Creating Layer gt_boxes_input-data_2_split
I1210 11:39:34.709674 29721 net.cpp:454] gt_boxes_input-data_2_split <- gt_boxes
I1210 11:39:34.709678 29721 net.cpp:411] gt_boxes_input-data_2_split -> gt_boxes_input-data_2_split_0
I1210 11:39:34.709683 29721 net.cpp:411] gt_boxes_input-data_2_split -> gt_boxes_input-data_2_split_1
I1210 11:39:34.709703 29721 net.cpp:150] Setting up gt_boxes_input-data_2_split
I1210 11:39:34.709707 29721 net.cpp:157] Top shape: 1 4 (4)
I1210 11:39:34.709712 29721 net.cpp:157] Top shape: 1 4 (4)
I1210 11:39:34.709713 29721 net.cpp:165] Memory required for data: 21600108
I1210 11:39:34.709717 29721 layer_factory.hpp:77] Creating layer conv1_1
I1210 11:39:34.709724 29721 net.cpp:106] Creating Layer conv1_1
I1210 11:39:34.709728 29721 net.cpp:454] conv1_1 <- data_input-data_0_split_0
I1210 11:39:34.709731 29721 net.cpp:411] conv1_1 -> conv1_1
I1210 11:39:34.889494 29721 net.cpp:150] Setting up conv1_1
I1210 11:39:34.889519 29721 net.cpp:157] Top shape: 1 64 600 1000 (38400000)
I1210 11:39:34.889523 29721 net.cpp:165] Memory required for data: 175200108
I1210 11:39:34.889536 29721 layer_factory.hpp:77] Creating layer relu1_1
I1210 11:39:34.889545 29721 net.cpp:106] Creating Layer relu1_1
I1210 11:39:34.889550 29721 net.cpp:454] relu1_1 <- conv1_1
I1210 11:39:34.889555 29721 net.cpp:397] relu1_1 -> conv1_1 (in-place)
I1210 11:39:34.889703 29721 net.cpp:150] Setting up relu1_1
I1210 11:39:34.889711 29721 net.cpp:157] Top shape: 1 64 600 1000 (38400000)
I1210 11:39:34.889714 29721 net.cpp:165] Memory required for data: 328800108
I1210 11:39:34.889717 29721 layer_factory.hpp:77] Creating layer conv1_2
I1210 11:39:34.889725 29721 net.cpp:106] Creating Layer conv1_2
I1210 11:39:34.889729 29721 net.cpp:454] conv1_2 <- conv1_1
I1210 11:39:34.889732 29721 net.cpp:411] conv1_2 -> conv1_2
I1210 11:39:34.892359 29721 net.cpp:150] Setting up conv1_2
I1210 11:39:34.892374 29721 net.cpp:157] Top shape: 1 64 600 1000 (38400000)
I1210 11:39:34.892377 29721 net.cpp:165] Memory required for data: 482400108
I1210 11:39:34.892385 29721 layer_factory.hpp:77] Creating layer relu1_2
I1210 11:39:34.892393 29721 net.cpp:106] Creating Layer relu1_2
I1210 11:39:34.892397 29721 net.cpp:454] relu1_2 <- conv1_2
I1210 11:39:34.892402 29721 net.cpp:397] relu1_2 -> conv1_2 (in-place)
I1210 11:39:34.892544 29721 net.cpp:150] Setting up relu1_2
I1210 11:39:34.892552 29721 net.cpp:157] Top shape: 1 64 600 1000 (38400000)
I1210 11:39:34.892555 29721 net.cpp:165] Memory required for data: 636000108
I1210 11:39:34.892558 29721 layer_factory.hpp:77] Creating layer pool1
I1210 11:39:34.892566 29721 net.cpp:106] Creating Layer pool1
I1210 11:39:34.892570 29721 net.cpp:454] pool1 <- conv1_2
I1210 11:39:34.892573 29721 net.cpp:411] pool1 -> pool1
I1210 11:39:34.892606 29721 net.cpp:150] Setting up pool1
I1210 11:39:34.892611 29721 net.cpp:157] Top shape: 1 64 300 500 (9600000)
I1210 11:39:34.892612 29721 net.cpp:165] Memory required for data: 674400108
I1210 11:39:34.892616 29721 layer_factory.hpp:77] Creating layer conv2_1
I1210 11:39:34.892623 29721 net.cpp:106] Creating Layer conv2_1
I1210 11:39:34.892626 29721 net.cpp:454] conv2_1 <- pool1
I1210 11:39:34.892629 29721 net.cpp:411] conv2_1 -> conv2_1
I1210 11:39:34.894654 29721 net.cpp:150] Setting up conv2_1
I1210 11:39:34.894667 29721 net.cpp:157] Top shape: 1 128 300 500 (19200000)
I1210 11:39:34.894670 29721 net.cpp:165] Memory required for data: 751200108
I1210 11:39:34.894680 29721 layer_factory.hpp:77] Creating layer relu2_1
I1210 11:39:34.894686 29721 net.cpp:106] Creating Layer relu2_1
I1210 11:39:34.894690 29721 net.cpp:454] relu2_1 <- conv2_1
I1210 11:39:34.894695 29721 net.cpp:397] relu2_1 -> conv2_1 (in-place)
I1210 11:39:34.894841 29721 net.cpp:150] Setting up relu2_1
I1210 11:39:34.894848 29721 net.cpp:157] Top shape: 1 128 300 500 (19200000)
I1210 11:39:34.894850 29721 net.cpp:165] Memory required for data: 828000108
I1210 11:39:34.894853 29721 layer_factory.hpp:77] Creating layer conv2_2
I1210 11:39:34.894860 29721 net.cpp:106] Creating Layer conv2_2
I1210 11:39:34.894862 29721 net.cpp:454] conv2_2 <- conv2_1
I1210 11:39:34.894867 29721 net.cpp:411] conv2_2 -> conv2_2
I1210 11:39:34.896138 29721 net.cpp:150] Setting up conv2_2
I1210 11:39:34.896149 29721 net.cpp:157] Top shape: 1 128 300 500 (19200000)
I1210 11:39:34.896152 29721 net.cpp:165] Memory required for data: 904800108
I1210 11:39:34.896157 29721 layer_factory.hpp:77] Creating layer relu2_2
I1210 11:39:34.896162 29721 net.cpp:106] Creating Layer relu2_2
I1210 11:39:34.896165 29721 net.cpp:454] relu2_2 <- conv2_2
I1210 11:39:34.896169 29721 net.cpp:397] relu2_2 -> conv2_2 (in-place)
I1210 11:39:34.896304 29721 net.cpp:150] Setting up relu2_2
I1210 11:39:34.896311 29721 net.cpp:157] Top shape: 1 128 300 500 (19200000)
I1210 11:39:34.896314 29721 net.cpp:165] Memory required for data: 981600108
I1210 11:39:34.896317 29721 layer_factory.hpp:77] Creating layer pool2
I1210 11:39:34.896322 29721 net.cpp:106] Creating Layer pool2
I1210 11:39:34.896324 29721 net.cpp:454] pool2 <- conv2_2
I1210 11:39:34.896329 29721 net.cpp:411] pool2 -> pool2
I1210 11:39:34.896358 29721 net.cpp:150] Setting up pool2
I1210 11:39:34.896363 29721 net.cpp:157] Top shape: 1 128 150 250 (4800000)
I1210 11:39:34.896366 29721 net.cpp:165] Memory required for data: 1000800108
I1210 11:39:34.896368 29721 layer_factory.hpp:77] Creating layer conv3_1
I1210 11:39:34.896374 29721 net.cpp:106] Creating Layer conv3_1
I1210 11:39:34.896378 29721 net.cpp:454] conv3_1 <- pool2
I1210 11:39:34.896381 29721 net.cpp:411] conv3_1 -> conv3_1
I1210 11:39:34.898432 29721 net.cpp:150] Setting up conv3_1
I1210 11:39:34.898443 29721 net.cpp:157] Top shape: 1 256 150 250 (9600000)
I1210 11:39:34.898445 29721 net.cpp:165] Memory required for data: 1039200108
I1210 11:39:34.898453 29721 layer_factory.hpp:77] Creating layer relu3_1
I1210 11:39:34.898458 29721 net.cpp:106] Creating Layer relu3_1
I1210 11:39:34.898461 29721 net.cpp:454] relu3_1 <- conv3_1
I1210 11:39:34.898465 29721 net.cpp:397] relu3_1 -> conv3_1 (in-place)
I1210 11:39:34.898870 29721 net.cpp:150] Setting up relu3_1
I1210 11:39:34.898880 29721 net.cpp:157] Top shape: 1 256 150 250 (9600000)
I1210 11:39:34.898882 29721 net.cpp:165] Memory required for data: 1077600108
I1210 11:39:34.898885 29721 layer_factory.hpp:77] Creating layer conv3_2
I1210 11:39:34.898893 29721 net.cpp:106] Creating Layer conv3_2
I1210 11:39:34.898896 29721 net.cpp:454] conv3_2 <- conv3_1
I1210 11:39:34.898901 29721 net.cpp:411] conv3_2 -> conv3_2
I1210 11:39:34.900888 29721 net.cpp:150] Setting up conv3_2
I1210 11:39:34.900899 29721 net.cpp:157] Top shape: 1 256 150 250 (9600000)
I1210 11:39:34.900902 29721 net.cpp:165] Memory required for data: 1116000108
I1210 11:39:34.900908 29721 layer_factory.hpp:77] Creating layer relu3_2
I1210 11:39:34.900913 29721 net.cpp:106] Creating Layer relu3_2
I1210 11:39:34.900916 29721 net.cpp:454] relu3_2 <- conv3_2
I1210 11:39:34.900920 29721 net.cpp:397] relu3_2 -> conv3_2 (in-place)
I1210 11:39:34.901343 29721 net.cpp:150] Setting up relu3_2
I1210 11:39:34.901355 29721 net.cpp:157] Top shape: 1 256 150 250 (9600000)
I1210 11:39:34.901356 29721 net.cpp:165] Memory required for data: 1154400108
I1210 11:39:34.901360 29721 layer_factory.hpp:77] Creating layer conv3_3
I1210 11:39:34.901366 29721 net.cpp:106] Creating Layer conv3_3
I1210 11:39:34.901370 29721 net.cpp:454] conv3_3 <- conv3_2
I1210 11:39:34.901374 29721 net.cpp:411] conv3_3 -> conv3_3
I1210 11:39:34.903884 29721 net.cpp:150] Setting up conv3_3
I1210 11:39:34.903903 29721 net.cpp:157] Top shape: 1 256 150 250 (9600000)
I1210 11:39:34.903905 29721 net.cpp:165] Memory required for data: 1192800108
I1210 11:39:34.903913 29721 layer_factory.hpp:77] Creating layer relu3_3
I1210 11:39:34.903923 29721 net.cpp:106] Creating Layer relu3_3
I1210 11:39:34.903928 29721 net.cpp:454] relu3_3 <- conv3_3
I1210 11:39:34.903933 29721 net.cpp:397] relu3_3 -> conv3_3 (in-place)
I1210 11:39:34.904073 29721 net.cpp:150] Setting up relu3_3
I1210 11:39:34.904080 29721 net.cpp:157] Top shape: 1 256 150 250 (9600000)
I1210 11:39:34.904083 29721 net.cpp:165] Memory required for data: 1231200108
I1210 11:39:34.904086 29721 layer_factory.hpp:77] Creating layer pool3
I1210 11:39:34.904093 29721 net.cpp:106] Creating Layer pool3
I1210 11:39:34.904094 29721 net.cpp:454] pool3 <- conv3_3
I1210 11:39:34.904099 29721 net.cpp:411] pool3 -> pool3
I1210 11:39:34.904134 29721 net.cpp:150] Setting up pool3
I1210 11:39:34.904139 29721 net.cpp:157] Top shape: 1 256 75 125 (2400000)
I1210 11:39:34.904141 29721 net.cpp:165] Memory required for data: 1240800108
I1210 11:39:34.904144 29721 layer_factory.hpp:77] Creating layer conv4_1
I1210 11:39:34.904150 29721 net.cpp:106] Creating Layer conv4_1
I1210 11:39:34.904152 29721 net.cpp:454] conv4_1 <- pool3
I1210 11:39:34.904156 29721 net.cpp:411] conv4_1 -> conv4_1
I1210 11:39:34.908946 29721 net.cpp:150] Setting up conv4_1
I1210 11:39:34.908967 29721 net.cpp:157] Top shape: 1 512 75 125 (4800000)
I1210 11:39:34.908970 29721 net.cpp:165] Memory required for data: 1260000108
I1210 11:39:34.908979 29721 layer_factory.hpp:77] Creating layer relu4_1
I1210 11:39:34.908988 29721 net.cpp:106] Creating Layer relu4_1
I1210 11:39:34.908993 29721 net.cpp:454] relu4_1 <- conv4_1
I1210 11:39:34.908998 29721 net.cpp:397] relu4_1 -> conv4_1 (in-place)
I1210 11:39:34.909152 29721 net.cpp:150] Setting up relu4_1
I1210 11:39:34.909159 29721 net.cpp:157] Top shape: 1 512 75 125 (4800000)
I1210 11:39:34.909162 29721 net.cpp:165] Memory required for data: 1279200108
I1210 11:39:34.909164 29721 layer_factory.hpp:77] Creating layer conv4_2
I1210 11:39:34.909173 29721 net.cpp:106] Creating Layer conv4_2
I1210 11:39:34.909175 29721 net.cpp:454] conv4_2 <- conv4_1
I1210 11:39:34.909181 29721 net.cpp:411] conv4_2 -> conv4_2
I1210 11:39:34.914674 29721 net.cpp:150] Setting up conv4_2
I1210 11:39:34.914697 29721 net.cpp:157] Top shape: 1 512 75 125 (4800000)
I1210 11:39:34.914700 29721 net.cpp:165] Memory required for data: 1298400108
I1210 11:39:34.914712 29721 layer_factory.hpp:77] Creating layer relu4_2
I1210 11:39:34.914721 29721 net.cpp:106] Creating Layer relu4_2
I1210 11:39:34.914726 29721 net.cpp:454] relu4_2 <- conv4_2
I1210 11:39:34.914731 29721 net.cpp:397] relu4_2 -> conv4_2 (in-place)
I1210 11:39:34.914870 29721 net.cpp:150] Setting up relu4_2
I1210 11:39:34.914876 29721 net.cpp:157] Top shape: 1 512 75 125 (4800000)
I1210 11:39:34.914880 29721 net.cpp:165] Memory required for data: 1317600108
I1210 11:39:34.914882 29721 layer_factory.hpp:77] Creating layer conv4_3
I1210 11:39:34.914891 29721 net.cpp:106] Creating Layer conv4_3
I1210 11:39:34.914893 29721 net.cpp:454] conv4_3 <- conv4_2
I1210 11:39:34.914898 29721 net.cpp:411] conv4_3 -> conv4_3
I1210 11:39:34.920253 29721 net.cpp:150] Setting up conv4_3
I1210 11:39:34.920280 29721 net.cpp:157] Top shape: 1 512 75 125 (4800000)
I1210 11:39:34.920284 29721 net.cpp:165] Memory required for data: 1336800108
I1210 11:39:34.920291 29721 layer_factory.hpp:77] Creating layer relu4_3
I1210 11:39:34.920301 29721 net.cpp:106] Creating Layer relu4_3
I1210 11:39:34.920306 29721 net.cpp:454] relu4_3 <- conv4_3
I1210 11:39:34.920311 29721 net.cpp:397] relu4_3 -> conv4_3 (in-place)
I1210 11:39:34.920449 29721 net.cpp:150] Setting up relu4_3
I1210 11:39:34.920457 29721 net.cpp:157] Top shape: 1 512 75 125 (4800000)
I1210 11:39:34.920460 29721 net.cpp:165] Memory required for data: 1356000108
I1210 11:39:34.920464 29721 layer_factory.hpp:77] Creating layer pool4
I1210 11:39:34.920471 29721 net.cpp:106] Creating Layer pool4
I1210 11:39:34.920475 29721 net.cpp:454] pool4 <- conv4_3
I1210 11:39:34.920480 29721 net.cpp:411] pool4 -> pool4
I1210 11:39:34.920518 29721 net.cpp:150] Setting up pool4
I1210 11:39:34.920526 29721 net.cpp:157] Top shape: 1 512 38 63 (1225728)
I1210 11:39:34.920528 29721 net.cpp:165] Memory required for data: 1360903020
I1210 11:39:34.920532 29721 layer_factory.hpp:77] Creating layer conv5_1
I1210 11:39:34.920541 29721 net.cpp:106] Creating Layer conv5_1
I1210 11:39:34.920544 29721 net.cpp:454] conv5_1 <- pool4
I1210 11:39:34.920549 29721 net.cpp:411] conv5_1 -> conv5_1
I1210 11:39:34.925794 29721 net.cpp:150] Setting up conv5_1
I1210 11:39:34.925820 29721 net.cpp:157] Top shape: 1 512 38 63 (1225728)
I1210 11:39:34.925823 29721 net.cpp:165] Memory required for data: 1365805932
I1210 11:39:34.925830 29721 layer_factory.hpp:77] Creating layer relu5_1
I1210 11:39:34.925839 29721 net.cpp:106] Creating Layer relu5_1
I1210 11:39:34.925844 29721 net.cpp:454] relu5_1 <- conv5_1
I1210 11:39:34.925849 29721 net.cpp:397] relu5_1 -> conv5_1 (in-place)
I1210 11:39:34.926290 29721 net.cpp:150] Setting up relu5_1
I1210 11:39:34.926300 29721 net.cpp:157] Top shape: 1 512 38 63 (1225728)
I1210 11:39:34.926302 29721 net.cpp:165] Memory required for data: 1370708844
I1210 11:39:34.926306 29721 layer_factory.hpp:77] Creating layer conv5_2
I1210 11:39:34.926314 29721 net.cpp:106] Creating Layer conv5_2
I1210 11:39:34.926317 29721 net.cpp:454] conv5_2 <- conv5_1
I1210 11:39:34.926321 29721 net.cpp:411] conv5_2 -> conv5_2
I1210 11:39:34.931071 29721 net.cpp:150] Setting up conv5_2
I1210 11:39:34.931105 29721 net.cpp:157] Top shape: 1 512 38 63 (1225728)
I1210 11:39:34.931108 29721 net.cpp:165] Memory required for data: 1375611756
I1210 11:39:34.931116 29721 layer_factory.hpp:77] Creating layer relu5_2
I1210 11:39:34.931124 29721 net.cpp:106] Creating Layer relu5_2
I1210 11:39:34.931129 29721 net.cpp:454] relu5_2 <- conv5_2
I1210 11:39:34.931134 29721 net.cpp:397] relu5_2 -> conv5_2 (in-place)
I1210 11:39:34.931723 29721 net.cpp:150] Setting up relu5_2
I1210 11:39:34.931733 29721 net.cpp:157] Top shape: 1 512 38 63 (1225728)
I1210 11:39:34.931736 29721 net.cpp:165] Memory required for data: 1380514668
I1210 11:39:34.931740 29721 layer_factory.hpp:77] Creating layer conv5_3
I1210 11:39:34.931751 29721 net.cpp:106] Creating Layer conv5_3
I1210 11:39:34.931753 29721 net.cpp:454] conv5_3 <- conv5_2
I1210 11:39:34.931758 29721 net.cpp:411] conv5_3 -> conv5_3
I1210 11:39:34.937310 29721 net.cpp:150] Setting up conv5_3
I1210 11:39:34.937335 29721 net.cpp:157] Top shape: 1 512 38 63 (1225728)
I1210 11:39:34.937337 29721 net.cpp:165] Memory required for data: 1385417580
I1210 11:39:34.937346 29721 layer_factory.hpp:77] Creating layer relu5_3
I1210 11:39:34.937356 29721 net.cpp:106] Creating Layer relu5_3
I1210 11:39:34.937361 29721 net.cpp:454] relu5_3 <- conv5_3
I1210 11:39:34.937367 29721 net.cpp:397] relu5_3 -> conv5_3 (in-place)
I1210 11:39:34.937510 29721 net.cpp:150] Setting up relu5_3
I1210 11:39:34.937516 29721 net.cpp:157] Top shape: 1 512 38 63 (1225728)
I1210 11:39:34.937520 29721 net.cpp:165] Memory required for data: 1390320492
I1210 11:39:34.937522 29721 layer_factory.hpp:77] Creating layer conv5_3_relu5_3_0_split
I1210 11:39:34.937527 29721 net.cpp:106] Creating Layer conv5_3_relu5_3_0_split
I1210 11:39:34.937530 29721 net.cpp:454] conv5_3_relu5_3_0_split <- conv5_3
I1210 11:39:34.937536 29721 net.cpp:411] conv5_3_relu5_3_0_split -> conv5_3_relu5_3_0_split_0
I1210 11:39:34.937541 29721 net.cpp:411] conv5_3_relu5_3_0_split -> conv5_3_relu5_3_0_split_1
I1210 11:39:34.937544 29721 net.cpp:411] conv5_3_relu5_3_0_split -> conv5_3_relu5_3_0_split_2
I1210 11:39:34.937584 29721 net.cpp:150] Setting up conv5_3_relu5_3_0_split
I1210 11:39:34.937589 29721 net.cpp:157] Top shape: 1 512 38 63 (1225728)
I1210 11:39:34.937593 29721 net.cpp:157] Top shape: 1 512 38 63 (1225728)
I1210 11:39:34.937597 29721 net.cpp:157] Top shape: 1 512 38 63 (1225728)
I1210 11:39:34.937598 29721 net.cpp:165] Memory required for data: 1405029228
I1210 11:39:34.937602 29721 layer_factory.hpp:77] Creating layer rpn_conv/3x3
I1210 11:39:34.937610 29721 net.cpp:106] Creating Layer rpn_conv/3x3
I1210 11:39:34.937613 29721 net.cpp:454] rpn_conv/3x3 <- conv5_3_relu5_3_0_split_0
I1210 11:39:34.937619 29721 net.cpp:411] rpn_conv/3x3 -> rpn/output
I1210 11:39:34.995615 29721 net.cpp:150] Setting up rpn_conv/3x3
I1210 11:39:34.995637 29721 net.cpp:157] Top shape: 1 512 38 63 (1225728)
I1210 11:39:34.995640 29721 net.cpp:165] Memory required for data: 1409932140
I1210 11:39:34.995647 29721 layer_factory.hpp:77] Creating layer rpn_relu/3x3
I1210 11:39:34.995656 29721 net.cpp:106] Creating Layer rpn_relu/3x3
I1210 11:39:34.995661 29721 net.cpp:454] rpn_relu/3x3 <- rpn/output
I1210 11:39:34.995666 29721 net.cpp:397] rpn_relu/3x3 -> rpn/output (in-place)
I1210 11:39:34.995801 29721 net.cpp:150] Setting up rpn_relu/3x3
I1210 11:39:34.995808 29721 net.cpp:157] Top shape: 1 512 38 63 (1225728)
I1210 11:39:34.995811 29721 net.cpp:165] Memory required for data: 1414835052
I1210 11:39:34.995815 29721 layer_factory.hpp:77] Creating layer rpn/output_rpn_relu/3x3_0_split
I1210 11:39:34.995820 29721 net.cpp:106] Creating Layer rpn/output_rpn_relu/3x3_0_split
I1210 11:39:34.995822 29721 net.cpp:454] rpn/output_rpn_relu/3x3_0_split <- rpn/output
I1210 11:39:34.995826 29721 net.cpp:411] rpn/output_rpn_relu/3x3_0_split -> rpn/output_rpn_relu/3x3_0_split_0
I1210 11:39:34.995832 29721 net.cpp:411] rpn/output_rpn_relu/3x3_0_split -> rpn/output_rpn_relu/3x3_0_split_1
I1210 11:39:34.995862 29721 net.cpp:150] Setting up rpn/output_rpn_relu/3x3_0_split
I1210 11:39:34.995867 29721 net.cpp:157] Top shape: 1 512 38 63 (1225728)
I1210 11:39:34.995870 29721 net.cpp:157] Top shape: 1 512 38 63 (1225728)
I1210 11:39:34.995872 29721 net.cpp:165] Memory required for data: 1424640876
I1210 11:39:34.995875 29721 layer_factory.hpp:77] Creating layer rpn_cls_score
I1210 11:39:34.995883 29721 net.cpp:106] Creating Layer rpn_cls_score
I1210 11:39:34.995887 29721 net.cpp:454] rpn_cls_score <- rpn/output_rpn_relu/3x3_0_split_0
I1210 11:39:34.995890 29721 net.cpp:411] rpn_cls_score -> rpn_cls_score
I1210 11:39:34.997485 29721 net.cpp:150] Setting up rpn_cls_score
I1210 11:39:34.997496 29721 net.cpp:157] Top shape: 1 30 38 63 (71820)
I1210 11:39:34.997499 29721 net.cpp:165] Memory required for data: 1424928156
I1210 11:39:34.997504 29721 layer_factory.hpp:77] Creating layer rpn_cls_score_rpn_cls_score_0_split
I1210 11:39:34.997509 29721 net.cpp:106] Creating Layer rpn_cls_score_rpn_cls_score_0_split
I1210 11:39:34.997512 29721 net.cpp:454] rpn_cls_score_rpn_cls_score_0_split <- rpn_cls_score
I1210 11:39:34.997517 29721 net.cpp:411] rpn_cls_score_rpn_cls_score_0_split -> rpn_cls_score_rpn_cls_score_0_split_0
I1210 11:39:34.997524 29721 net.cpp:411] rpn_cls_score_rpn_cls_score_0_split -> rpn_cls_score_rpn_cls_score_0_split_1
I1210 11:39:34.997552 29721 net.cpp:150] Setting up rpn_cls_score_rpn_cls_score_0_split
I1210 11:39:34.997555 29721 net.cpp:157] Top shape: 1 30 38 63 (71820)
I1210 11:39:34.997560 29721 net.cpp:157] Top shape: 1 30 38 63 (71820)
I1210 11:39:34.997561 29721 net.cpp:165] Memory required for data: 1425502716
I1210 11:39:34.997565 29721 layer_factory.hpp:77] Creating layer rpn_bbox_pred
I1210 11:39:34.997570 29721 net.cpp:106] Creating Layer rpn_bbox_pred
I1210 11:39:34.997575 29721 net.cpp:454] rpn_bbox_pred <- rpn/output_rpn_relu/3x3_0_split_1
I1210 11:39:34.997579 29721 net.cpp:411] rpn_bbox_pred -> rpn_bbox_pred
I1210 11:39:34.999261 29721 net.cpp:150] Setting up rpn_bbox_pred
I1210 11:39:34.999271 29721 net.cpp:157] Top shape: 1 60 38 63 (143640)
I1210 11:39:34.999274 29721 net.cpp:165] Memory required for data: 1426077276
I1210 11:39:34.999279 29721 layer_factory.hpp:77] Creating layer rpn_bbox_pred_rpn_bbox_pred_0_split
I1210 11:39:34.999282 29721 net.cpp:106] Creating Layer rpn_bbox_pred_rpn_bbox_pred_0_split
I1210 11:39:34.999285 29721 net.cpp:454] rpn_bbox_pred_rpn_bbox_pred_0_split <- rpn_bbox_pred
I1210 11:39:34.999289 29721 net.cpp:411] rpn_bbox_pred_rpn_bbox_pred_0_split -> rpn_bbox_pred_rpn_bbox_pred_0_split_0
I1210 11:39:34.999295 29721 net.cpp:411] rpn_bbox_pred_rpn_bbox_pred_0_split -> rpn_bbox_pred_rpn_bbox_pred_0_split_1
I1210 11:39:34.999321 29721 net.cpp:150] Setting up rpn_bbox_pred_rpn_bbox_pred_0_split
I1210 11:39:34.999328 29721 net.cpp:157] Top shape: 1 60 38 63 (143640)
I1210 11:39:34.999332 29721 net.cpp:157] Top shape: 1 60 38 63 (143640)
I1210 11:39:34.999334 29721 net.cpp:165] Memory required for data: 1427226396
I1210 11:39:34.999336 29721 layer_factory.hpp:77] Creating layer rpn_cls_score_reshape
I1210 11:39:34.999346 29721 net.cpp:106] Creating Layer rpn_cls_score_reshape
I1210 11:39:34.999349 29721 net.cpp:454] rpn_cls_score_reshape <- rpn_cls_score_rpn_cls_score_0_split_0
I1210 11:39:34.999354 29721 net.cpp:411] rpn_cls_score_reshape -> rpn_cls_score_reshape
I1210 11:39:34.999372 29721 net.cpp:150] Setting up rpn_cls_score_reshape
I1210 11:39:34.999377 29721 net.cpp:157] Top shape: 1 2 570 63 (71820)
I1210 11:39:34.999379 29721 net.cpp:165] Memory required for data: 1427513676
I1210 11:39:34.999382 29721 layer_factory.hpp:77] Creating layer rpn_cls_score_reshape_rpn_cls_score_reshape_0_split
I1210 11:39:34.999384 29721 net.cpp:106] Creating Layer rpn_cls_score_reshape_rpn_cls_score_reshape_0_split
I1210 11:39:34.999387 29721 net.cpp:454] rpn_cls_score_reshape_rpn_cls_score_reshape_0_split <- rpn_cls_score_reshape
I1210 11:39:34.999392 29721 net.cpp:411] rpn_cls_score_reshape_rpn_cls_score_reshape_0_split -> rpn_cls_score_reshape_rpn_cls_score_reshape_0_split_0
I1210 11:39:34.999395 29721 net.cpp:411] rpn_cls_score_reshape_rpn_cls_score_reshape_0_split -> rpn_cls_score_reshape_rpn_cls_score_reshape_0_split_1
I1210 11:39:34.999419 29721 net.cpp:150] Setting up rpn_cls_score_reshape_rpn_cls_score_reshape_0_split
I1210 11:39:34.999423 29721 net.cpp:157] Top shape: 1 2 570 63 (71820)
I1210 11:39:34.999426 29721 net.cpp:157] Top shape: 1 2 570 63 (71820)
I1210 11:39:34.999429 29721 net.cpp:165] Memory required for data: 1428088236
I1210 11:39:34.999431 29721 layer_factory.hpp:77] Creating layer rpn-data
I1210 11:39:34.999836 29721 net.cpp:106] Creating Layer rpn-data
I1210 11:39:34.999845 29721 net.cpp:454] rpn-data <- rpn_cls_score_rpn_cls_score_0_split_1
I1210 11:39:34.999850 29721 net.cpp:454] rpn-data <- gt_boxes_input-data_2_split_0
I1210 11:39:34.999855 29721 net.cpp:454] rpn-data <- im_info_input-data_1_split_0
I1210 11:39:34.999858 29721 net.cpp:454] rpn-data <- data_input-data_0_split_1
I1210 11:39:34.999862 29721 net.cpp:411] rpn-data -> rpn_labels
I1210 11:39:34.999868 29721 net.cpp:411] rpn-data -> rpn_bbox_targets
I1210 11:39:34.999874 29721 net.cpp:411] rpn-data -> rpn_bbox_inside_weights
I1210 11:39:34.999879 29721 net.cpp:411] rpn-data -> rpn_bbox_outside_weights
===================================anchor_scales in AnchorTargetLayer:=============(2, 4, 8, 16, 32)
I1210 11:39:35.001294 29721 net.cpp:150] Setting up rpn-data
I1210 11:39:35.001305 29721 net.cpp:157] Top shape: 1 1 570 63 (35910)
I1210 11:39:35.001309 29721 net.cpp:157] Top shape: 1 60 38 63 (143640)
I1210 11:39:35.001313 29721 net.cpp:157] Top shape: 1 60 38 63 (143640)
I1210 11:39:35.001317 29721 net.cpp:157] Top shape: 1 60 38 63 (143640)
I1210 11:39:35.001318 29721 net.cpp:165] Memory required for data: 1429955556
I1210 11:39:35.001322 29721 layer_factory.hpp:77] Creating layer rpn_loss_cls
I1210 11:39:35.001332 29721 net.cpp:106] Creating Layer rpn_loss_cls
I1210 11:39:35.001336 29721 net.cpp:454] rpn_loss_cls <- rpn_cls_score_reshape_rpn_cls_score_reshape_0_split_0
I1210 11:39:35.001340 29721 net.cpp:454] rpn_loss_cls <- rpn_labels
…
I1210 11:39:35.003187 29721 net.cpp:157] Top shape: (1)
I1210 11:39:35.003190 29721 net.cpp:160]     with loss weight 1
I1210 11:39:35.003195 29721 net.cpp:165] Memory required for data: 1429955564
I1210 11:39:35.003197 29721 layer_factory.hpp:77] Creating layer rpn_cls_prob
I1210 11:39:35.003202 29721 net.cpp:106] Creating Layer rpn_cls_prob
I1210 11:39:35.003206 29721 net.cpp:454] rpn_cls_prob <- rpn_cls_score_reshape_rpn_cls_score_reshape_0_split_1
I1210 11:39:35.003209 29721 net.cpp:411] rpn_cls_prob -> rpn_cls_prob
I1210 11:39:35.003401 29721 net.cpp:150] Setting up rpn_cls_prob
I1210 11:39:35.003408 29721 net.cpp:157] Top shape: 1 2 570 63 (71820)
I1210 11:39:35.003412 29721 net.cpp:165] Memory required for data: 1430242844
I1210 11:39:35.003413 29721 layer_factory.hpp:77] Creating layer rpn_cls_prob_reshape
I1210 11:39:35.003419 29721 net.cpp:106] Creating Layer rpn_cls_prob_reshape
I1210 11:39:35.003422 29721 net.cpp:454] rpn_cls_prob_reshape <- rpn_cls_prob
I1210 11:39:35.003427 29721 net.cpp:411] rpn_cls_prob_reshape -> rpn_cls_prob_reshape
I1210 11:39:35.003448 29721 net.cpp:150] Setting up rpn_cls_prob_reshape
I1210 11:39:35.003453 29721 net.cpp:157] Top shape: 1 30 38 63 (71820)
I1210 11:39:35.003455 29721 net.cpp:165] Memory required for data: 1430530124
I1210 11:39:35.003458 29721 layer_factory.hpp:77] Creating layer proposal
I1210 11:39:35.004004 29721 net.cpp:106] Creating Layer proposal
I1210 11:39:35.004014 29721 net.cpp:454] proposal <- rpn_cls_prob_reshape
I1210 11:39:35.004019 29721 net.cpp:454] proposal <- rpn_bbox_pred_rpn_bbox_pred_0_split_1
I1210 11:39:35.004022 29721 net.cpp:454] proposal <- im_info_input-data_1_split_1
I1210 11:39:35.004027 29721 net.cpp:411] proposal -> rpn_rois
=================================anchor_scales in ProposalLayer:=============(2, 4, 8, 16, 32)
I1210 11:39:35.005167 29721 net.cpp:150] Setting up proposal
I1210 11:39:35.005178 29721 net.cpp:157] Top shape: 1 5 (5)
I1210 11:39:35.005182 29721 net.cpp:165] Memory required for data: 1430530144
I1210 11:39:35.005184 29721 layer_factory.hpp:77] Creating layer roi-data
I1210 11:39:35.005403 29721 net.cpp:106] Creating Layer roi-data
I1210 11:39:35.005412 29721 net.cpp:454] roi-data <- rpn_rois
I1210 11:39:35.005416 29721 net.cpp:454] roi-data <- gt_boxes_input-data_2_split_1
I1210 11:39:35.005420 29721 net.cpp:454] roi-data <- im_info_input-data_1_split_2
I1210 11:39:35.005424 29721 net.cpp:454] roi-data <- seg_mask_inds
I1210 11:39:35.005427 29721 net.cpp:454] roi-data <- flipped
I1210 11:39:35.005431 29721 net.cpp:411] roi-data -> rois
I1210 11:39:35.005439 29721 net.cpp:411] roi-data -> labels
I1210 11:39:35.005443 29721 net.cpp:411] roi-data -> bbox_targets
I1210 11:39:35.005448 29721 net.cpp:411] roi-data -> bbox_inside_weights
I1210 11:39:35.005453 29721 net.cpp:411] roi-data -> bbox_outside_weights
I1210 11:39:35.005458 29721 net.cpp:411] roi-data -> mask_targets
I1210 11:39:35.005463 29721 net.cpp:411] roi-data -> rois_pos
I1210 11:39:35.005787 29721 net.cpp:150] Setting up roi-data
I1210 11:39:35.005797 29721 net.cpp:157] Top shape: 1 5 (5)
I1210 11:39:35.005800 29721 net.cpp:157] Top shape: 1 1 (1)
I1210 11:39:35.005805 29721 net.cpp:157] Top shape: 1 72 (72)
I1210 11:39:35.005807 29721 net.cpp:157] Top shape: 1 72 (72)
I1210 11:39:35.005810 29721 net.cpp:157] Top shape: 1 72 (72)
I1210 11:39:35.005813 29721 net.cpp:157] Top shape: 1 244 244 (59536)
I1210 11:39:35.005817 29721 net.cpp:157] Top shape: 1 5 (5)
I1210 11:39:35.005820 29721 net.cpp:165] Memory required for data: 1430769196
I1210 11:39:35.005822 29721 layer_factory.hpp:77] Creating layer roi_pool5
I1210 11:39:35.005834 29721 net.cpp:106] Creating Layer roi_pool5
I1210 11:39:35.005838 29721 net.cpp:454] roi_pool5 <- conv5_3_relu5_3_0_split_1
I1210 11:39:35.005842 29721 net.cpp:454] roi_pool5 <- rois
I1210 11:39:35.005846 29721 net.cpp:411] roi_pool5 -> pool5
I1210 11:39:35.005851 29721 roi_alignment_layer.cpp:32] Spatial scale: 0.0625
I1210 11:39:35.005933 29721 net.cpp:150] Setting up roi_pool5
I1210 11:39:35.005939 29721 net.cpp:157] Top shape: 1 512 7 7 (25088)
I1210 11:39:35.005941 29721 net.cpp:165] Memory required for data: 1430869548
I1210 11:39:35.005944 29721 layer_factory.hpp:77] Creating layer fc6
I1210 11:39:35.005949 29721 net.cpp:106] Creating Layer fc6
I1210 11:39:35.005952 29721 net.cpp:454] fc6 <- pool5
I1210 11:39:35.005956 29721 net.cpp:411] fc6 -> fc6
I1210 11:39:35.159519 29721 net.cpp:150] Setting up fc6
I1210 11:39:35.159555 29721 net.cpp:157] Top shape: 1 4096 (4096)
I1210 11:39:35.159559 29721 net.cpp:165] Memory required for data: 1430885932
I1210 11:39:35.159574 29721 layer_factory.hpp:77] Creating layer relu6
I1210 11:39:35.159582 29721 net.cpp:106] Creating Layer relu6
I1210 11:39:35.159587 29721 net.cpp:454] relu6 <- fc6
I1210 11:39:35.159592 29721 net.cpp:397] relu6 -> fc6 (in-place)
I1210 11:39:35.160249 29721 net.cpp:150] Setting up relu6
I1210 11:39:35.160259 29721 net.cpp:157] Top shape: 1 4096 (4096)
I1210 11:39:35.160262 29721 net.cpp:165] Memory required for data: 1430902316
I1210 11:39:35.160265 29721 layer_factory.hpp:77] Creating layer fc7
I1210 11:39:35.160272 29721 net.cpp:106] Creating Layer fc7
I1210 11:39:35.160275 29721 net.cpp:454] fc7 <- fc6
I1210 11:39:35.160279 29721 net.cpp:411] fc7 -> fc7
I1210 11:39:35.186504 29721 net.cpp:150] Setting up fc7
I1210 11:39:35.186537 29721 net.cpp:157] Top shape: 1 4096 (4096)
I1210 11:39:35.186540 29721 net.cpp:165] Memory required for data: 1430918700
I1210 11:39:35.186550 29721 layer_factory.hpp:77] Creating layer relu7
I1210 11:39:35.186559 29721 net.cpp:106] Creating Layer relu7
I1210 11:39:35.186564 29721 net.cpp:454] relu7 <- fc7
I1210 11:39:35.186570 29721 net.cpp:397] relu7 -> fc7 (in-place)
I1210 11:39:35.186782 29721 net.cpp:150] Setting up relu7
I1210 11:39:35.186789 29721 net.cpp:157] Top shape: 1 4096 (4096)
I1210 11:39:35.186792 29721 net.cpp:165] Memory required for data: 1430935084
I1210 11:39:35.186795 29721 layer_factory.hpp:77] Creating layer fc7_relu7_0_split
I1210 11:39:35.186800 29721 net.cpp:106] Creating Layer fc7_relu7_0_split
I1210 11:39:35.186805 29721 net.cpp:454] fc7_relu7_0_split <- fc7
I1210 11:39:35.186808 29721 net.cpp:411] fc7_relu7_0_split -> fc7_relu7_0_split_0
I1210 11:39:35.186815 29721 net.cpp:411] fc7_relu7_0_split -> fc7_relu7_0_split_1
I1210 11:39:35.186851 29721 net.cpp:150] Setting up fc7_relu7_0_split
I1210 11:39:35.186857 29721 net.cpp:157] Top shape: 1 4096 (4096)
I1210 11:39:35.186861 29721 net.cpp:157] Top shape: 1 4096 (4096)
I1210 11:39:35.186863 29721 net.cpp:165] Memory required for data: 1430967852
I1210 11:39:35.186866 29721 layer_factory.hpp:77] Creating layer cls_score
I1210 11:39:35.186872 29721 net.cpp:106] Creating Layer cls_score
I1210 11:39:35.186875 29721 net.cpp:454] cls_score <- fc7_relu7_0_split_0
I1210 11:39:35.186880 29721 net.cpp:411] cls_score -> cls_score
I1210 11:39:35.188735 29721 net.cpp:150] Setting up cls_score
I1210 11:39:35.188741 29721 net.cpp:157] Top shape: 1 18 (18)
I1210 11:39:35.188743 29721 net.cpp:165] Memory required for data: 1430967924
I1210 11:39:35.188748 29721 layer_factory.hpp:77] Creating layer bbox_pred
I1210 11:39:35.188753 29721 net.cpp:106] Creating Layer bbox_pred
I1210 11:39:35.188756 29721 net.cpp:454] bbox_pred <- fc7_relu7_0_split_1
I1210 11:39:35.188760 29721 net.cpp:411] bbox_pred -> bbox_pred
I1210 11:39:35.195994 29721 net.cpp:150] Setting up bbox_pred
I1210 11:39:35.196007 29721 net.cpp:157] Top shape: 1 72 (72)
I1210 11:39:35.196009 29721 net.cpp:165] Memory required for data: 1430968212
I1210 11:39:35.196015 29721 layer_factory.hpp:77] Creating layer loss_cls
I1210 11:39:35.196022 29721 net.cpp:106] Creating Layer loss_cls
I1210 11:39:35.196027 29721 net.cpp:454] loss_cls <- cls_score
I1210 11:39:35.196032 29721 net.cpp:454] loss_cls <- labels
I1210 11:39:35.196035 29721 net.cpp:411] loss_cls -> loss_cls
…
I1210 11:39:35.196414 29721 net.cpp:165] Memory required for data: 1430968220
I1210 11:39:35.196418 29721 layer_factory.hpp:77] Creating layer roi_pool5_2
I1210 11:39:35.196422 29721 net.cpp:106] Creating Layer roi_pool5_2
I1210 11:39:35.196426 29721 net.cpp:454] roi_pool5_2 <- conv5_3_relu5_3_0_split_2
I1210 11:39:35.196430 29721 net.cpp:454] roi_pool5_2 <- rois_pos
I1210 11:39:35.196435 29721 net.cpp:411] roi_pool5_2 -> pool5_2
I1210 11:39:35.196440 29721 roi_alignment_layer.cpp:32] Spatial scale: 0.0625
I1210 11:39:35.196516 29721 net.cpp:150] Setting up roi_pool5_2
I1210 11:39:35.196522 29721 net.cpp:157] Top shape: 1 512 7 7 (25088)
I1210 11:39:35.196525 29721 net.cpp:165] Memory required for data: 1431068572
I1210 11:39:35.196527 29721 layer_factory.hpp:77] Creating layer pool5_2_conv
I1210 11:39:35.196535 29721 net.cpp:106] Creating Layer pool5_2_conv
I1210 11:39:35.196538 29721 net.cpp:454] pool5_2_conv <- pool5_2
I1210 11:39:35.196542 29721 net.cpp:411] pool5_2_conv -> pool5_2_conv
I1210 11:39:35.204746 29721 net.cpp:150] Setting up pool5_2_conv
I1210 11:39:35.204757 29721 net.cpp:157] Top shape: 1 512 7 7 (25088)
I1210 11:39:35.204761 29721 net.cpp:165] Memory required for data: 1431168924
I1210 11:39:35.204766 29721 layer_factory.hpp:77] Creating layer pool5_2_conv_relu
I1210 11:39:35.204772 29721 net.cpp:106] Creating Layer pool5_2_conv_relu
I1210 11:39:35.204776 29721 net.cpp:454] pool5_2_conv_relu <- pool5_2_conv
I1210 11:39:35.204780 29721 net.cpp:411] pool5_2_conv_relu -> pool5_2_conv_relu
I1210 11:39:35.204936 29721 net.cpp:150] Setting up pool5_2_conv_relu
I1210 11:39:35.204943 29721 net.cpp:157] Top shape: 1 512 7 7 (25088)
I1210 11:39:35.204946 29721 net.cpp:165] Memory required for data: 1431269276
I1210 11:39:35.204948 29721 layer_factory.hpp:77] Creating layer pool5_2_conv2
I1210 11:39:35.204960 29721 net.cpp:106] Creating Layer pool5_2_conv2
I1210 11:39:35.204963 29721 net.cpp:454] pool5_2_conv2 <- pool5_2_conv_relu
I1210 11:39:35.204968 29721 net.cpp:411] pool5_2_conv2 -> pool5_2_conv2
I1210 11:39:35.262176 29721 net.cpp:150] Setting up pool5_2_conv2
I1210 11:39:35.262197 29721 net.cpp:157] Top shape: 1 512 7 7 (25088)
I1210 11:39:35.262200 29721 net.cpp:165] Memory required for data: 1431369628
I1210 11:39:35.262209 29721 layer_factory.hpp:77] Creating layer pool5_2_conv2_relu
I1210 11:39:35.262218 29721 net.cpp:106] Creating Layer pool5_2_conv2_relu
I1210 11:39:35.262223 29721 net.cpp:454] pool5_2_conv2_relu <- pool5_2_conv2
I1210 11:39:35.262228 29721 net.cpp:411] pool5_2_conv2_relu -> pool5_2_conv2_relu
I1210 11:39:35.262697 29721 net.cpp:150] Setting up pool5_2_conv2_relu
I1210 11:39:35.262707 29721 net.cpp:157] Top shape: 1 512 7 7 (25088)
I1210 11:39:35.262711 29721 net.cpp:165] Memory required for data: 1431469980
I1210 11:39:35.262713 29721 layer_factory.hpp:77] Creating layer mask_deconv1
I1210 11:39:35.262722 29721 net.cpp:106] Creating Layer mask_deconv1
I1210 11:39:35.262725 29721 net.cpp:454] mask_deconv1 <- pool5_2_conv2_relu
I1210 11:39:35.262730 29721 net.cpp:411] mask_deconv1 -> mask_deconv1
I1210 11:39:35.263620 29721 net.cpp:150] Setting up mask_deconv1
I1210 11:39:35.263626 29721 net.cpp:157] Top shape: 1 256 30 30 (230400)
I1210 11:39:35.263629 29721 net.cpp:165] Memory required for data: 1432391580
I1210 11:39:35.263634 29721 layer_factory.hpp:77] Creating layer pool5_2_conv3
I1210 11:39:35.263641 29721 net.cpp:106] Creating Layer pool5_2_conv3
I1210 11:39:35.263644 29721 net.cpp:454] pool5_2_conv3 <- mask_deconv1
I1210 11:39:35.263649 29721 net.cpp:411] pool5_2_conv3 -> pool5_2_conv3
I1210 11:39:35.293707 29721 net.cpp:150] Setting up pool5_2_conv3
I1210 11:39:35.293730 29721 net.cpp:157] Top shape: 1 512 30 30 (460800)
I1210 11:39:35.293732 29721 net.cpp:165] Memory required for data: 1434234780
I1210 11:39:35.293740 29721 layer_factory.hpp:77] Creating layer pool5_2_conv3_relu
I1210 11:39:35.293751 29721 net.cpp:106] Creating Layer pool5_2_conv3_relu
I1210 11:39:35.293756 29721 net.cpp:454] pool5_2_conv3_relu <- pool5_2_conv3
I1210 11:39:35.293761 29721 net.cpp:411] pool5_2_conv3_relu -> pool5_2_conv3_relu
I1210 11:39:35.294263 29721 net.cpp:150] Setting up pool5_2_conv3_relu
I1210 11:39:35.294276 29721 net.cpp:157] Top shape: 1 512 30 30 (460800)
I1210 11:39:35.294281 29721 net.cpp:165] Memory required for data: 1436077980
I1210 11:39:35.294284 29721 layer_factory.hpp:77] Creating layer pool5_2_conv4
I1210 11:39:35.294296 29721 net.cpp:106] Creating Layer pool5_2_conv4
I1210 11:39:35.294299 29721 net.cpp:454] pool5_2_conv4 <- pool5_2_conv3_relu
I1210 11:39:35.294306 29721 net.cpp:411] pool5_2_conv4 -> pool5_2_conv4
I1210 11:39:35.351173 29721 net.cpp:150] Setting up pool5_2_conv4
I1210 11:39:35.351197 29721 net.cpp:157] Top shape: 1 512 30 30 (460800)
I1210 11:39:35.351200 29721 net.cpp:165] Memory required for data: 1437921180
I1210 11:39:35.351208 29721 layer_factory.hpp:77] Creating layer pool5_2_conv4_relu
I1210 11:39:35.351218 29721 net.cpp:106] Creating Layer pool5_2_conv4_relu
I1210 11:39:35.351224 29721 net.cpp:454] pool5_2_conv4_relu <- pool5_2_conv4
I1210 11:39:35.351229 29721 net.cpp:411] pool5_2_conv4_relu -> pool5_2_conv4_relu
I1210 11:39:35.351382 29721 net.cpp:150] Setting up pool5_2_conv4_relu
I1210 11:39:35.351390 29721 net.cpp:157] Top shape: 1 512 30 30 (460800)
I1210 11:39:35.351393 29721 net.cpp:165] Memory required for data: 1439764380
I1210 11:39:35.351397 29721 layer_factory.hpp:77] Creating layer mask_deconv2
I1210 11:39:35.351404 29721 net.cpp:106] Creating Layer mask_deconv2
I1210 11:39:35.351408 29721 net.cpp:454] mask_deconv2 <- pool5_2_conv4_relu
I1210 11:39:35.351411 29721 net.cpp:411] mask_deconv2 -> mask_deconv2
I1210 11:39:35.352327 29721 net.cpp:150] Setting up mask_deconv2
I1210 11:39:35.352334 29721 net.cpp:157] Top shape: 1 256 122 122 (3810304)
I1210 11:39:35.352337 29721 net.cpp:165] Memory required for data: 1455005596
I1210 11:39:35.352344 29721 layer_factory.hpp:77] Creating layer pool5_2_conv5
I1210 11:39:35.352351 29721 net.cpp:106] Creating Layer pool5_2_conv5
I1210 11:39:35.352355 29721 net.cpp:454] pool5_2_conv5 <- mask_deconv2
I1210 11:39:35.352360 29721 net.cpp:411] pool5_2_conv5 -> pool5_2_conv5
I1210 11:39:35.382215 29721 net.cpp:150] Setting up pool5_2_conv5
I1210 11:39:35.382238 29721 net.cpp:157] Top shape: 1 512 122 122 (7620608)
I1210 11:39:35.382241 29721 net.cpp:165] Memory required for data: 1485488028
I1210 11:39:35.382249 29721 layer_factory.hpp:77] Creating layer pool5_2_conv5_relu
I1210 11:39:35.382259 29721 net.cpp:106] Creating Layer pool5_2_conv5_relu
I1210 11:39:35.382264 29721 net.cpp:454] pool5_2_conv5_relu <- pool5_2_conv5
I1210 11:39:35.382270 29721 net.cpp:411] pool5_2_conv5_relu -> pool5_2_conv5_relu
I1210 11:39:35.382474 29721 net.cpp:150] Setting up pool5_2_conv5_relu
I1210 11:39:35.382483 29721 net.cpp:157] Top shape: 1 512 122 122 (7620608)
I1210 11:39:35.382485 29721 net.cpp:165] Memory required for data: 1515970460
I1210 11:39:35.382488 29721 layer_factory.hpp:77] Creating layer pool5_2_conv6
I1210 11:39:35.382498 29721 net.cpp:106] Creating Layer pool5_2_conv6
I1210 11:39:35.382501 29721 net.cpp:454] pool5_2_conv6 <- pool5_2_conv5_relu
I1210 11:39:35.382506 29721 net.cpp:411] pool5_2_conv6 -> pool5_2_conv6
I1210 11:39:35.439679 29721 net.cpp:150] Setting up pool5_2_conv6
I1210 11:39:35.439705 29721 net.cpp:157] Top shape: 1 512 122 122 (7620608)
I1210 11:39:35.439708 29721 net.cpp:165] Memory required for data: 1546452892
I1210 11:39:35.439716 29721 layer_factory.hpp:77] Creating layer pool5_2_conv6_relu
I1210 11:39:35.439725 29721 net.cpp:106] Creating Layer pool5_2_conv6_relu
I1210 11:39:35.439730 29721 net.cpp:454] pool5_2_conv6_relu <- pool5_2_conv6
I1210 11:39:35.439736 29721 net.cpp:411] pool5_2_conv6_relu -> pool5_2_conv6_relu
I1210 11:39:35.439896 29721 net.cpp:150] Setting up pool5_2_conv6_relu
I1210 11:39:35.439904 29721 net.cpp:157] Top shape: 1 512 122 122 (7620608)
I1210 11:39:35.439908 29721 net.cpp:165] Memory required for data: 1576935324
I1210 11:39:35.439910 29721 layer_factory.hpp:77] Creating layer mask_deconv3
I1210 11:39:35.439918 29721 net.cpp:106] Creating Layer mask_deconv3
I1210 11:39:35.439921 29721 net.cpp:454] mask_deconv3 <- pool5_2_conv6_relu
I1210 11:39:35.439927 29721 net.cpp:411] mask_deconv3 -> mask_deconv3
I1210 11:39:35.440342 29721 net.cpp:150] Setting up mask_deconv3
I1210 11:39:35.440349 29721 net.cpp:157] Top shape: 1 256 244 244 (15241216)
I1210 11:39:35.440352 29721 net.cpp:165] Memory required for data: 1637900188
I1210 11:39:35.440356 29721 layer_factory.hpp:77] Creating layer mask_score
I1210 11:39:35.440364 29721 net.cpp:106] Creating Layer mask_score
I1210 11:39:35.440367 29721 net.cpp:454] mask_score <- mask_deconv3
I1210 11:39:35.440372 29721 net.cpp:411] mask_score -> mask_score
I1210 11:39:35.441503 29721 net.cpp:150] Setting up mask_score
I1210 11:39:35.441514 29721 net.cpp:157] Top shape: 1 8 244 244 (476288)
I1210 11:39:35.441515 29721 net.cpp:165] Memory required for data: 1639805340
I1210 11:39:35.441521 29721 layer_factory.hpp:77] Creating layer loss_mask
I1210 11:39:35.441529 29721 net.cpp:106] Creating Layer loss_mask
I1210 11:39:35.441532 29721 net.cpp:454] loss_mask <- mask_score
I1210 11:39:35.441536 29721 net.cpp:454] loss_mask <- mask_targets
I1210 11:39:35.441540 29721 net.cpp:411] loss_mask -> loss_mask
…
