…
average_loss: 100
iter_size: 2
I1210 11:38:10.816381 29638 solver.cpp:81] Creating training net from train_net file: models/pascal_voc/VGG16/faster_rcnn_end2end/train.prototxt
I1210 11:38:10.817731 29638 net.cpp:49] Initializing net from parameters: 
name: "VGG_ILSVRC_16_layers"
state {
  phase: TRAIN
}
layer {
  name: "input-data"
  type: "Python"
  top: "data"
  top: "im_info"
  top: "gt_boxes"
  top: "seg_mask_inds"
  top: "flipped"
  python_param {
    module: "roi_data_layer.layer"
    layer: "RoIDataLayer"
    param_str: "\'num_classes\': 18"
  }
}
layer {
  name: "conv1_1"
  type: "Convolution"
  bottom: "data"
  top: "conv1_1"
  param {
    lr_mult: 0
    decay_mult: 0
  }
  param {
    lr_mult: 0
    decay_mult: 0
  }
  convolution_param {
    num_output: 64
    pad: 1
    kernel_size: 3
  }
}
layer {
  name: "relu1_1"
  type: "ReLU"
  bottom: "conv1_1"
  top: "conv1_1"
}
layer {
  name: "conv1_2"
  type: "Convolution"
  bottom: "conv1_1"
  top: "conv1_2"
  param {
    lr_mult: 0
    decay_mult: 0
  }
  param {
    lr_mult: 0
    decay_mult: 0
  }
  convolution_param {
    num_output: 64
    pad: 1
    kernel_size: 3
  }
}
layer {
  name: "relu1_2"
  type: "ReLU"
  bottom: "conv1_2"
  top: "conv1_2"
}
layer {
  name: "pool1"
  type: "Pooling"
  bottom: "conv1_2"
  top: "pool1"
  pooling_param {
    pool: MAX
    kernel_size: 2
    stride: 2
  }
}
layer {
  name: "conv2_1"
  type: "Convolution"
  bottom: "pool1"
  top: "conv2_1"
  param {
    lr_mult: 0
    decay_mult: 0
  }
  param {
    lr_mult: 0
    decay_mult: 0
  }
  convolution_param {
    num_output: 128
    pad: 1
    kernel_size: 3
  }
}
layer {
  name: "relu2_1"
  type: "ReLU"
  bottom: "conv2_1"
  top: "conv2_1"
}
layer {
  name: "conv2_2"
  type: "Convolution"
  bottom: "conv2_1"
  top: "conv2_2"
  param {
    lr_mult: 0
    decay_mult: 0
  }
  param {
    lr_mult: 0
    decay_mult: 0
  }
  convolution_param {
    num_output: 128
    pad: 1
    kernel_size: 3
  }
}
layer {
  name: "relu2_2"
  type: "ReLU"
  bottom: "conv2_2"
  top: "conv2_2"
}
layer {
  name: "pool2"
  type: "Pooling"
  bottom: "conv2_2"
  top: "pool2"
  pooling_param {
    pool: MAX
    kernel_size: 2
    stride: 2
  }
}
layer {
  name: "conv3_1"
  type: "Convolution"
  bottom: "pool2"
  top: "conv3_1"
  param {
    lr_mult: 1
  }
  param {
    lr_mult: 2
  }
  convolution_param {
    num_output: 256
    pad: 1
    kernel_size: 3
  }
}
layer {
  name: "relu3_1"
  type: "ReLU"
  bottom: "conv3_1"
  top: "conv3_1"
}
layer {
  name: "conv3_2"
  type: "Convolution"
  bottom: "conv3_1"
  top: "conv3_2"
  param {
    lr_mult: 1
  }
  param {
    lr_mult: 2
  }
  convolution_param {
    num_output: 256
    pad: 1
    kernel_size: 3
  }
}
layer {
  name: "relu3_2"
  type: "ReLU"
  bottom: "conv3_2"
  top: "conv3_2"
}
layer {
  name: "conv3_3"
  type: "Convolution"
  bottom: "conv3_2"
  top: "conv3_3"
  param {
    lr_mult: 1
  }
  param {
    lr_mult: 2
  }
  convolution_param {
    num_output: 256
    pad: 1
    kernel_size: 3
  }
}
layer {
  name: "relu3_3"
  type: "ReLU"
  bottom: "conv3_3"
  top: "conv3_3"
}
layer {
  name: "pool3"
  type: "Pooling"
  bottom: "conv3_3"
  top: "pool3"
  pooling_param {
    pool: MAX
    kernel_size: 2
    stride: 2
  }
}
layer {
  name: "conv4_1"
  type: "Convolution"
  bottom: "pool3"
  top: "conv4_1"
  param {
    lr_mult: 1
  }
  param {
    lr_mult: 2
  }
  convolution_param {
    num_output: 512
    pad: 1
    kernel_size: 3
  }
}
layer {
  name: "relu4_1"
  type: "ReLU"
  bottom: "conv4_1"
  top: "conv4_1"
}
layer {
  name: "conv4_2"
  type: "Convolution"
  bottom: "conv4_1"
  top: "conv4_2"
  param {
    lr_mult: 1
  }
  param {
    lr_mult: 2
  }
  convolution_param {
    num_output: 512
    pad: 1
    kernel_size: 3
  }
}
layer {
  name: "relu4_2"
  type: "ReLU"
  bottom: "conv4_2"
  top: "conv4_2"
}
layer {
  name: "conv4_3"
  type: "Convolution"
  bottom: "conv4_2"
  top: "conv4_3"
  param {
    lr_mult: 1
  }
  param {
    lr_mult: 2
  }
  convolution_param {
    num_output: 512
    pad: 1
    kernel_size: 3
  }
}
layer {
  name: "relu4_3"
  type: "ReLU"
  bottom: "conv4_3"
  top: "conv4_3"
}
layer {
  name: "pool4"
  type: "Pooling"
  bottom: "conv4_3"
  top: "pool4"
  pooling_param {
    pool: MAX
    kernel_size: 2
    stride: 2
  }
}
layer {
  name: "conv5_1"
  type: "Convolution"
  bottom: "pool4"
  top: "conv5_1"
  param {
    lr_mult: 1
  }
  param {
    lr_mult: 2
  }
  convolution_param {
    num_output: 512
    pad: 1
    kernel_size: 3
  }
}
layer {
  name: "relu5_1"
  type: "ReLU"
  bottom: "conv5_1"
  top: "conv5_1"
}
layer {
  name: "conv5_2"
  type: "Convolution"
  bottom: "conv5_1"
  top: "conv5_2"
  param {
    lr_mult: 1
  }
  param {
    lr_mult: 2
  }
  convolution_param {
    num_output: 512
    pad: 1
    kernel_size: 3
  }
}
layer {
  name: "relu5_2"
  type: "ReLU"
  bottom: "conv5_2"
  top: "conv5_2"
}
layer {
  name: "conv5_3"
  type: "Convolution"
  bottom: "conv5_2"
  top: "conv5_3"
  param {
    lr_mult: 1
  }
  param {
    lr_mult: 2
  }
  convolution_param {
    num_output: 512
    pad: 1
    kernel_size: 3
  }
}
layer {
  name: "relu5_3"
  type: "ReLU"
  bottom: "conv5_3"
  top: "conv5_3"
}
layer {
  name: "rpn_conv/3x3"
  type: "Convolution"
  bottom: "conv5_3"
  top: "rpn/output"
  param {
    lr_mult: 1
  }
  param {
    lr_mult: 2
  }
  convolution_param {
    num_output: 512
    pad: 1
    kernel_size: 3
    stride: 1
    weight_filler {
      type: "gaussian"
      std: 0.01
    }
    bias_filler {
      type: "constant"
      value: 0
    }
  }
}
layer {
  name: "rpn_relu/3x3"
  type: "ReLU"
  bottom: "rpn/output"
  top: "rpn/output"
}
layer {
  name: "rpn_cls_score"
  type: "Convolution"
  bottom: "rpn/output"
  top: "rpn_cls_score"
  param {
    lr_mult: 1
  }
  param {
    lr_mult: 2
  }
  convolution_param {
    num_output: 30
    pad: 0
    kernel_size: 1
    stride: 1
    weight_filler {
      type: "gaussian"
      std: 0.01
    }
    bias_filler {
      type: "constant"
      value: 0
    }
  }
}
layer {
  name: "rpn_bbox_pred"
  type: "Convolution"
  bottom: "rpn/output"
  top: "rpn_bbox_pred"
  param {
    lr_mult: 1
  }
  param {
    lr_mult: 2
  }
  convolution_param {
    num_output: 60
    pad: 0
    kernel_size: 1
    stride: 1
    weight_filler {
      type: "gaussian"
      std: 0.01
    }
    bias_filler {
      type: "constant"
      value: 0
    }
  }
}
layer {
  name: "rpn_cls_score_reshape"
  type: "Reshape"
  bottom: "rpn_cls_score"
  top: "rpn_cls_score_reshape"
  reshape_param {
    shape {
      dim: 0
      dim: 2
      dim: -1
      dim: 0
    }
  }
}
layer {
  name: "rpn-data"
  type: "Python"
  bottom: "rpn_cls_score"
  bottom: "gt_boxes"
  bottom: "im_info"
  bottom: "data"
  top: "rpn_labels"
  top: "rpn_bbox_targets"
  top: "rpn_bbox_inside_weights"
  top: "rpn_bbox_outside_weights"
  python_param {
    module: "rpn.anchor_target_layer"
    layer: "AnchorTargetLayer"
    param_str: "\'feat_stride\': 16 \n\'scales\': !!python/tuple [2, 4, 8, 16, 32]"
  }
}
layer {
  name: "rpn_loss_cls"
  type: "SoftmaxWithLoss"
  bottom: "rpn_cls_score_reshape"
  bottom: "rpn_labels"
  top: "rpn_cls_loss"
  loss_weight: 1
  propagate_down: true
  propagate_down: false
  loss_param {
    ignore_label: -1
    normalize: true
  }
}
layer {
  name: "rpn_loss_bbox"
  type: "SmoothL1Loss"
  bottom: "rpn_bbox_pred"
  bottom: "rpn_bbox_targets"
  bottom: "rpn_bbox_inside_weights"
  bottom: "rpn_bbox_outside_weights"
  top: "rpn_loss_bbox"
  loss_weight: 1
  smooth_l1_loss_param {
    sigma: 3
  }
}
layer {
  name: "rpn_cls_prob"
  type: "Softmax"
  bottom: "rpn_cls_score_reshape"
  top: "rpn_cls_prob"
}
layer {
  name: "rpn_cls_prob_reshape"
  type: "Reshape"
  bottom: "rpn_cls_prob"
  top: "rpn_cls_prob_reshape"
  reshape_param {
    shape {
      dim: 0
      dim: 30
      dim: -1
      dim: 0
    }
  }
}
layer {
  name: "proposal"
  type: "Python"
  bottom: "rpn_cls_prob_reshape"
  bottom: "rpn_bbox_pred"
  bottom: "im_info"
  top: "rpn_rois"
  python_param {
    module: "rpn.proposal_layer"
    layer: "ProposalLayer"
    param_str: "\'feat_stride\': 16 \n\'scales\': !!python/tuple [2, 4, 8, 16, 32]"
  }
}
layer {
  name: "roi-data"
  type: "Python"
  bottom: "rpn_rois"
  bottom: "gt_boxes"
  bottom: "im_info"
  bottom: "seg_mask_inds"
  bottom: "flipped"
  top: "rois"
  top: "labels"
  top: "bbox_targets"
  top: "bbox_inside_weights"
  top: "bbox_outside_weights"
  top: "mask_targets"
  top: "rois_pos"
  python_param {
    module: "rpn.proposal_target_layer"
    layer: "ProposalTargetLayer"
    param_str: "\'num_classes\': 18"
  }
}
layer {
  name: "roi_pool5"
  type: "ROIAlignment"
  bottom: "conv5_3"
  bottom: "rois"
  top: "pool5"
  roi_alignment_param {
    pooled_h: 7
    pooled_w: 7
    spatial_scale: 0.0625
  }
}
layer {
  name: "fc6"
  type: "InnerProduct"
  bottom: "pool5"
  top: "fc6"
  param {
    lr_mult: 1
  }
  param {
    lr_mult: 2
  }
  inner_product_param {
    num_output: 4096
  }
}
layer {
  name: "relu6"
  type: "ReLU"
  bottom: "fc6"
  top: "fc6"
}
layer {
  name: "fc7"
  type: "InnerProduct"
  bottom: "fc6"
  top: "fc7"
  param {
    lr_mult: 1
  }
  param {
    lr_mult: 2
  }
  inner_product_param {
    num_output: 4096
  }
}
layer {
  name: "relu7"
  type: "ReLU"
  bottom: "fc7"
  top: "fc7"
}
layer {
  name: "cls_score"
  type: "InnerProduct"
  bottom: "fc7"
  top: "cls_score"
  param {
    lr_mult: 1
  }
  param {
    lr_mult: 2
  }
  inner_product_param {
    num_output: 18
    weight_filler {
      type: "gaussian"
      std: 0.01
    }
    bias_filler {
      type: "constant"
      value: 0
    }
  }
}
layer {
  name: "bbox_pred"
  type: "InnerProduct"
  bottom: "fc7"
  top: "bbox_pred"
  param {
    lr_mult: 1
  }
  param {
    lr_mult: 2
  }
  inner_product_param {
    num_output: 72
    weight_filler {
      type: "gaussian"
      std: 0.001
    }
    bias_filler {
      type: "constant"
      value: 0
    }
  }
}
layer {
  name: "loss_cls"
  type: "SoftmaxWithLoss"
  bottom: "cls_score"
  bottom: "labels"
  top: "loss_cls"
  loss_weight: 3
  propagate_down: true
  propagate_down: false
}
layer {
  name: "loss_bbox"
  type: "SmoothL1Loss"
  bottom: "bbox_pred"
  bottom: "bbox_targets"
  bottom: "bbox_inside_weights"
  bottom: "bbox_outside_weights"
  top: "loss_bbox"
  loss_weight: 2
}
layer {
  name: "roi_pool5_2"
  type: "ROIAlignment"
  bottom: "conv5_3"
  bottom: "rois_pos"
  top: "pool5_2"
  roi_alignment_param {
    pooled_h: 7
    pooled_w: 7
    spatial_scale: 0.0625
  }
}
layer {
  name: "pool5_2_conv"
  type: "Convolution"
  bottom: "pool5_2"
  top: "pool5_2_conv"
  param {
    lr_mult: 1
    decay_mult: 1
  }
  param {
    lr_mult: 2
    decay_mult: 0
  }
  convolution_param {
    num_output: 512
    pad: 0
    kernel_size: 1
    weight_filler {
      type: "gaussian"
      std: 0.01
    }
    bias_filler {
      type: "constant"
      value: 0
    }
  }
}
layer {
  name: "pool5_2_conv_relu"
  type: "ReLU"
  bottom: "pool5_2_conv"
  top: "pool5_2_conv_relu"
}
layer {
  name: "pool5_2_conv2"
  type: "Convolution"
  bottom: "pool5_2_conv_relu"
  top: "pool5_2_conv2"
  param {
    lr_mult: 1
    decay_mult: 1
  }
  param {
    lr_mult: 2
    decay_mult: 0
  }
  convolution_param {
    num_output: 512
    pad: 1
    kernel_size: 3
    stride: 1
    weight_filler {
      type: "gaussian"
      std: 0.01
    }
    bias_filler {
      type: "constant"
      value: 0
    }
  }
}
layer {
  name: "pool5_2_conv2_relu"
  type: "ReLU"
  bottom: "pool5_2_conv2"
  top: "pool5_2_conv2_relu"
}
layer {
  name: "mask_deconv1"
  type: "Deconvolution"
  bottom: "pool5_2_conv2_relu"
  top: "mask_deconv1"
  param {
    lr_mult: 1
    decay_mult: 1
  }
  param {
    lr_mult: 2
    decay_mult: 0
  }
  convolution_param {
    num_output: 256
    pad: 1
    kernel_size: 8
    group: 256
    stride: 4
    weight_filler {
      type: "bilinear"
    }
  }
}
layer {
  name: "pool5_2_conv3"
  type: "Convolution"
  bottom: "mask_deconv1"
  top: "pool5_2_conv3"
  param {
    lr_mult: 1
    decay_mult: 1
  }
  param {
    lr_mult: 2
    decay_mult: 0
  }
  convolution_param {
    num_output: 512
    pad: 1
    kernel_size: 3
    stride: 1
    weight_filler {
      type: "gaussian"
      std: 0.01
    }
    bias_filler {
      type: "constant"
      value: 0
    }
  }
}
layer {
  name: "pool5_2_conv3_relu"
  type: "ReLU"
  bottom: "pool5_2_conv3"
  top: "pool5_2_conv3_relu"
}
layer {
  name: "pool5_2_conv4"
  type: "Convolution"
  bottom: "pool5_2_conv3_relu"
  top: "pool5_2_conv4"
  param {
    lr_mult: 1
    decay_mult: 1
  }
  param {
    lr_mult: 2
    decay_mult: 0
  }
  convolution_param {
    num_output: 512
    pad: 1
    kernel_size: 3
    stride: 1
    weight_filler {
      type: "gaussian"
      std: 0.01
    }
    bias_filler {
      type: "constant"
      value: 0
    }
  }
}
layer {
  name: "pool5_2_conv4_relu"
  type: "ReLU"
  bottom: "pool5_2_conv4"
  top: "pool5_2_conv4_relu"
}
layer {
  name: "mask_deconv2"
  type: "Deconvolution"
  bottom: "pool5_2_conv4_relu"
  top: "mask_deconv2"
  param {
    lr_mult: 1
    decay_mult: 1
  }
  param {
    lr_mult: 2
    decay_mult: 0
  }
  convolution_param {
    num_output: 256
    pad: 1
    kernel_size: 8
    group: 256
    stride: 4
    weight_filler {
      type: "bilinear"
    }
  }
}
layer {
  name: "pool5_2_conv5"
  type: "Convolution"
  bottom: "mask_deconv2"
  top: "pool5_2_conv5"
  param {
    lr_mult: 1
    decay_mult: 1
  }
  param {
    lr_mult: 2
    decay_mult: 0
  }
  convolution_param {
    num_output: 512
    pad: 1
    kernel_size: 3
    stride: 1
    weight_filler {
      type: "gaussian"
      std: 0.01
    }
    bias_filler {
      type: "constant"
      value: 0
    }
  }
}
layer {
  name: "pool5_2_conv5_relu"
  type: "ReLU"
  bottom: "pool5_2_conv5"
  top: "pool5_2_conv5_relu"
}
layer {
  name: "pool5_2_conv6"
  type: "Convolution"
  bottom: "pool5_2_conv5_relu"
  top: "pool5_2_conv6"
  param {
    lr_mult: 1
    decay_mult: 1
  }
  param {
    lr_mult: 2
    decay_mult: 0
  }
  convolution_param {
    num_output: 512
    pad: 1
    kernel_size: 3
    stride: 1
    weight_filler {
      type: "gaussian"
      std: 0.01
    }
    bias_filler {
      type: "constant"
      value: 0
    }
  }
}
layer {
  name: "pool5_2_conv6_relu"
  type: "ReLU"
  bottom: "pool5_2_conv6"
  top: "pool5_2_conv6_relu"
}
layer {
  name: "mask_deconv3"
  type: "Deconvolution"
  bottom: "pool5_2_conv6_relu"
  top: "mask_deconv3"
  param {
    lr_mult: 1
    decay_mult: 1
  }
  param {
    lr_mult: 2
    decay_mult: 0
  }
  convolution_param {
    num_output: 256
    pad: 1
    kernel_size: 4
    group: 256
    stride: 2
    weight_filler {
      type: "bilinear"
    }
  }
}
layer {
  name: "mask_score"
  type: "Convolution"
  bottom: "mask_deconv3"
  top: "mask_score"
  param {
    lr_mult: 1
    decay_mult: 1
  }
  param {
    lr_mult: 2
    decay_mult: 0
  }
  convolution_param {
    num_output: 8
    pad: 0
    kernel_size: 1
    weight_filler {
      type: "gaussian"
      std: 0.01
    }
    bias_filler {
      type: "constant"
      value: 0
    }
  }
}
layer {
  name: "loss_mask"
  type: "SoftmaxWithLoss"
  bottom: "mask_score"
  bottom: "mask_targets"
  top: "loss_mask"
  loss_weight: 3
  propagate_down: true
  propagate_down: false
  loss_param {
    ignore_label: -1
    normalize: true
  }
}
I1210 11:38:10.818074 29638 layer_factory.hpp:77] Creating layer input-data
I1210 11:38:10.883810 29638 net.cpp:106] Creating Layer input-data
I1210 11:38:10.883846 29638 net.cpp:411] input-data -> data
I1210 11:38:10.883865 29638 net.cpp:411] input-data -> im_info
I1210 11:38:10.883880 29638 net.cpp:411] input-data -> gt_boxes
I1210 11:38:10.883896 29638 net.cpp:411] input-data -> seg_mask_inds
I1210 11:38:10.883914 29638 net.cpp:411] input-data -> flipped
RoiDataLayer: name_to_top: {'gt_boxes': 2, 'data': 0, 'seg_mask_inds': 3, 'im_info': 1, 'flipped': 4}
I1210 11:38:10.928194 29638 net.cpp:150] Setting up input-data
I1210 11:38:10.928213 29638 net.cpp:157] Top shape: 1 3 600 1000 (1800000)
I1210 11:38:10.928218 29638 net.cpp:157] Top shape: 1 3 (3)
I1210 11:38:10.928222 29638 net.cpp:157] Top shape: 1 4 (4)
I1210 11:38:10.928226 29638 net.cpp:157] Top shape: 1 2 (2)
I1210 11:38:10.928231 29638 net.cpp:157] Top shape: 1 1 (1)
I1210 11:38:10.928234 29638 net.cpp:165] Memory required for data: 7200040
I1210 11:38:10.928241 29638 layer_factory.hpp:77] Creating layer data_input-data_0_split
I1210 11:38:10.928256 29638 net.cpp:106] Creating Layer data_input-data_0_split
I1210 11:38:10.928261 29638 net.cpp:454] data_input-data_0_split <- data
I1210 11:38:10.928268 29638 net.cpp:411] data_input-data_0_split -> data_input-data_0_split_0
I1210 11:38:10.928277 29638 net.cpp:411] data_input-data_0_split -> data_input-data_0_split_1
I1210 11:38:10.928318 29638 net.cpp:150] Setting up data_input-data_0_split
I1210 11:38:10.928325 29638 net.cpp:157] Top shape: 1 3 600 1000 (1800000)
I1210 11:38:10.928330 29638 net.cpp:157] Top shape: 1 3 600 1000 (1800000)
I1210 11:38:10.928334 29638 net.cpp:165] Memory required for data: 21600040
I1210 11:38:10.928339 29638 layer_factory.hpp:77] Creating layer im_info_input-data_1_split
I1210 11:38:10.928345 29638 net.cpp:106] Creating Layer im_info_input-data_1_split
I1210 11:38:10.928350 29638 net.cpp:454] im_info_input-data_1_split <- im_info
I1210 11:38:10.928356 29638 net.cpp:411] im_info_input-data_1_split -> im_info_input-data_1_split_0
I1210 11:38:10.928364 29638 net.cpp:411] im_info_input-data_1_split -> im_info_input-data_1_split_1
I1210 11:38:10.928372 29638 net.cpp:411] im_info_input-data_1_split -> im_info_input-data_1_split_2
I1210 11:38:10.928419 29638 net.cpp:150] Setting up im_info_input-data_1_split
I1210 11:38:10.928428 29638 net.cpp:157] Top shape: 1 3 (3)
I1210 11:38:10.928433 29638 net.cpp:157] Top shape: 1 3 (3)
I1210 11:38:10.928437 29638 net.cpp:157] Top shape: 1 3 (3)
I1210 11:38:10.928441 29638 net.cpp:165] Memory required for data: 21600076
I1210 11:38:10.928445 29638 layer_factory.hpp:77] Creating layer gt_boxes_input-data_2_split
I1210 11:38:10.928452 29638 net.cpp:106] Creating Layer gt_boxes_input-data_2_split
I1210 11:38:10.928457 29638 net.cpp:454] gt_boxes_input-data_2_split <- gt_boxes
I1210 11:38:10.928464 29638 net.cpp:411] gt_boxes_input-data_2_split -> gt_boxes_input-data_2_split_0
I1210 11:38:10.928472 29638 net.cpp:411] gt_boxes_input-data_2_split -> gt_boxes_input-data_2_split_1
I1210 11:38:10.928508 29638 net.cpp:150] Setting up gt_boxes_input-data_2_split
I1210 11:38:10.928517 29638 net.cpp:157] Top shape: 1 4 (4)
I1210 11:38:10.928522 29638 net.cpp:157] Top shape: 1 4 (4)
I1210 11:38:10.928526 29638 net.cpp:165] Memory required for data: 21600108
I1210 11:38:10.928530 29638 layer_factory.hpp:77] Creating layer conv1_1
I1210 11:38:10.928541 29638 net.cpp:106] Creating Layer conv1_1
I1210 11:38:10.928546 29638 net.cpp:454] conv1_1 <- data_input-data_0_split_0
I1210 11:38:10.928553 29638 net.cpp:411] conv1_1 -> conv1_1
I1210 11:38:11.300271 29638 net.cpp:150] Setting up conv1_1
I1210 11:38:11.300299 29638 net.cpp:157] Top shape: 1 64 600 1000 (38400000)
I1210 11:38:11.300304 29638 net.cpp:165] Memory required for data: 175200108
I1210 11:38:11.300320 29638 layer_factory.hpp:77] Creating layer relu1_1
I1210 11:38:11.300333 29638 net.cpp:106] Creating Layer relu1_1
I1210 11:38:11.300340 29638 net.cpp:454] relu1_1 <- conv1_1
I1210 11:38:11.300348 29638 net.cpp:397] relu1_1 -> conv1_1 (in-place)
I1210 11:38:11.300509 29638 net.cpp:150] Setting up relu1_1
I1210 11:38:11.300519 29638 net.cpp:157] Top shape: 1 64 600 1000 (38400000)
I1210 11:38:11.300523 29638 net.cpp:165] Memory required for data: 328800108
I1210 11:38:11.300526 29638 layer_factory.hpp:77] Creating layer conv1_2
I1210 11:38:11.300539 29638 net.cpp:106] Creating Layer conv1_2
I1210 11:38:11.300544 29638 net.cpp:454] conv1_2 <- conv1_1
I1210 11:38:11.300551 29638 net.cpp:411] conv1_2 -> conv1_2
I1210 11:38:11.303272 29638 net.cpp:150] Setting up conv1_2
I1210 11:38:11.303290 29638 net.cpp:157] Top shape: 1 64 600 1000 (38400000)
I1210 11:38:11.303294 29638 net.cpp:165] Memory required for data: 482400108
I1210 11:38:11.303305 29638 layer_factory.hpp:77] Creating layer relu1_2
I1210 11:38:11.303315 29638 net.cpp:106] Creating Layer relu1_2
I1210 11:38:11.303320 29638 net.cpp:454] relu1_2 <- conv1_2
I1210 11:38:11.303326 29638 net.cpp:397] relu1_2 -> conv1_2 (in-place)
I1210 11:38:11.303467 29638 net.cpp:150] Setting up relu1_2
I1210 11:38:11.303477 29638 net.cpp:157] Top shape: 1 64 600 1000 (38400000)
I1210 11:38:11.303479 29638 net.cpp:165] Memory required for data: 636000108
I1210 11:38:11.303483 29638 layer_factory.hpp:77] Creating layer pool1
I1210 11:38:11.303493 29638 net.cpp:106] Creating Layer pool1
I1210 11:38:11.303498 29638 net.cpp:454] pool1 <- conv1_2
I1210 11:38:11.303504 29638 net.cpp:411] pool1 -> pool1
I1210 11:38:11.303537 29638 net.cpp:150] Setting up pool1
I1210 11:38:11.303544 29638 net.cpp:157] Top shape: 1 64 300 500 (9600000)
I1210 11:38:11.303548 29638 net.cpp:165] Memory required for data: 674400108
I1210 11:38:11.303552 29638 layer_factory.hpp:77] Creating layer conv2_1
I1210 11:38:11.303560 29638 net.cpp:106] Creating Layer conv2_1
I1210 11:38:11.303565 29638 net.cpp:454] conv2_1 <- pool1
I1210 11:38:11.303571 29638 net.cpp:411] conv2_1 -> conv2_1
I1210 11:38:11.305608 29638 net.cpp:150] Setting up conv2_1
I1210 11:38:11.305620 29638 net.cpp:157] Top shape: 1 128 300 500 (19200000)
I1210 11:38:11.305624 29638 net.cpp:165] Memory required for data: 751200108
I1210 11:38:11.305634 29638 layer_factory.hpp:77] Creating layer relu2_1
I1210 11:38:11.305644 29638 net.cpp:106] Creating Layer relu2_1
I1210 11:38:11.305649 29638 net.cpp:454] relu2_1 <- conv2_1
I1210 11:38:11.305655 29638 net.cpp:397] relu2_1 -> conv2_1 (in-place)
I1210 11:38:11.305794 29638 net.cpp:150] Setting up relu2_1
I1210 11:38:11.305804 29638 net.cpp:157] Top shape: 1 128 300 500 (19200000)
I1210 11:38:11.305806 29638 net.cpp:165] Memory required for data: 828000108
I1210 11:38:11.305810 29638 layer_factory.hpp:77] Creating layer conv2_2
I1210 11:38:11.305819 29638 net.cpp:106] Creating Layer conv2_2
I1210 11:38:11.305824 29638 net.cpp:454] conv2_2 <- conv2_1
I1210 11:38:11.305830 29638 net.cpp:411] conv2_2 -> conv2_2
I1210 11:38:11.307487 29638 net.cpp:150] Setting up conv2_2
I1210 11:38:11.307499 29638 net.cpp:157] Top shape: 1 128 300 500 (19200000)
I1210 11:38:11.307503 29638 net.cpp:165] Memory required for data: 904800108
I1210 11:38:11.307512 29638 layer_factory.hpp:77] Creating layer relu2_2
I1210 11:38:11.307520 29638 net.cpp:106] Creating Layer relu2_2
I1210 11:38:11.307525 29638 net.cpp:454] relu2_2 <- conv2_2
I1210 11:38:11.307539 29638 net.cpp:397] relu2_2 -> conv2_2 (in-place)
I1210 11:38:11.307680 29638 net.cpp:150] Setting up relu2_2
I1210 11:38:11.307689 29638 net.cpp:157] Top shape: 1 128 300 500 (19200000)
I1210 11:38:11.307693 29638 net.cpp:165] Memory required for data: 981600108
I1210 11:38:11.307698 29638 layer_factory.hpp:77] Creating layer pool2
I1210 11:38:11.307703 29638 net.cpp:106] Creating Layer pool2
I1210 11:38:11.307709 29638 net.cpp:454] pool2 <- conv2_2
I1210 11:38:11.307715 29638 net.cpp:411] pool2 -> pool2
I1210 11:38:11.307750 29638 net.cpp:150] Setting up pool2
I1210 11:38:11.307757 29638 net.cpp:157] Top shape: 1 128 150 250 (4800000)
I1210 11:38:11.307761 29638 net.cpp:165] Memory required for data: 1000800108
I1210 11:38:11.307765 29638 layer_factory.hpp:77] Creating layer conv3_1
I1210 11:38:11.307772 29638 net.cpp:106] Creating Layer conv3_1
I1210 11:38:11.307777 29638 net.cpp:454] conv3_1 <- pool2
I1210 11:38:11.307783 29638 net.cpp:411] conv3_1 -> conv3_1
I1210 11:38:11.309931 29638 net.cpp:150] Setting up conv3_1
I1210 11:38:11.309949 29638 net.cpp:157] Top shape: 1 256 150 250 (9600000)
I1210 11:38:11.309953 29638 net.cpp:165] Memory required for data: 1039200108
I1210 11:38:11.309965 29638 layer_factory.hpp:77] Creating layer relu3_1
I1210 11:38:11.309975 29638 net.cpp:106] Creating Layer relu3_1
I1210 11:38:11.309980 29638 net.cpp:454] relu3_1 <- conv3_1
I1210 11:38:11.309986 29638 net.cpp:397] relu3_1 -> conv3_1 (in-place)
I1210 11:38:11.310406 29638 net.cpp:150] Setting up relu3_1
I1210 11:38:11.310418 29638 net.cpp:157] Top shape: 1 256 150 250 (9600000)
I1210 11:38:11.310421 29638 net.cpp:165] Memory required for data: 1077600108
I1210 11:38:11.310425 29638 layer_factory.hpp:77] Creating layer conv3_2
I1210 11:38:11.310436 29638 net.cpp:106] Creating Layer conv3_2
I1210 11:38:11.310442 29638 net.cpp:454] conv3_2 <- conv3_1
I1210 11:38:11.310449 29638 net.cpp:411] conv3_2 -> conv3_2
I1210 11:38:11.312430 29638 net.cpp:150] Setting up conv3_2
I1210 11:38:11.312445 29638 net.cpp:157] Top shape: 1 256 150 250 (9600000)
I1210 11:38:11.312449 29638 net.cpp:165] Memory required for data: 1116000108
I1210 11:38:11.312458 29638 layer_factory.hpp:77] Creating layer relu3_2
I1210 11:38:11.312465 29638 net.cpp:106] Creating Layer relu3_2
I1210 11:38:11.312470 29638 net.cpp:454] relu3_2 <- conv3_2
I1210 11:38:11.312476 29638 net.cpp:397] relu3_2 -> conv3_2 (in-place)
I1210 11:38:11.312904 29638 net.cpp:150] Setting up relu3_2
I1210 11:38:11.312916 29638 net.cpp:157] Top shape: 1 256 150 250 (9600000)
I1210 11:38:11.312921 29638 net.cpp:165] Memory required for data: 1154400108
I1210 11:38:11.312924 29638 layer_factory.hpp:77] Creating layer conv3_3
I1210 11:38:11.312933 29638 net.cpp:106] Creating Layer conv3_3
I1210 11:38:11.312940 29638 net.cpp:454] conv3_3 <- conv3_2
I1210 11:38:11.312947 29638 net.cpp:411] conv3_3 -> conv3_3
I1210 11:38:11.315268 29638 net.cpp:150] Setting up conv3_3
I1210 11:38:11.315289 29638 net.cpp:157] Top shape: 1 256 150 250 (9600000)
I1210 11:38:11.315294 29638 net.cpp:165] Memory required for data: 1192800108
I1210 11:38:11.315304 29638 layer_factory.hpp:77] Creating layer relu3_3
I1210 11:38:11.315312 29638 net.cpp:106] Creating Layer relu3_3
I1210 11:38:11.315320 29638 net.cpp:454] relu3_3 <- conv3_3
I1210 11:38:11.315326 29638 net.cpp:397] relu3_3 -> conv3_3 (in-place)
I1210 11:38:11.315470 29638 net.cpp:150] Setting up relu3_3
I1210 11:38:11.315479 29638 net.cpp:157] Top shape: 1 256 150 250 (9600000)
I1210 11:38:11.315484 29638 net.cpp:165] Memory required for data: 1231200108
I1210 11:38:11.315487 29638 layer_factory.hpp:77] Creating layer pool3
I1210 11:38:11.315495 29638 net.cpp:106] Creating Layer pool3
I1210 11:38:11.315500 29638 net.cpp:454] pool3 <- conv3_3
I1210 11:38:11.315506 29638 net.cpp:411] pool3 -> pool3
I1210 11:38:11.315543 29638 net.cpp:150] Setting up pool3
I1210 11:38:11.315551 29638 net.cpp:157] Top shape: 1 256 75 125 (2400000)
I1210 11:38:11.315553 29638 net.cpp:165] Memory required for data: 1240800108
I1210 11:38:11.315557 29638 layer_factory.hpp:77] Creating layer conv4_1
I1210 11:38:11.315567 29638 net.cpp:106] Creating Layer conv4_1
I1210 11:38:11.315572 29638 net.cpp:454] conv4_1 <- pool3
I1210 11:38:11.315577 29638 net.cpp:411] conv4_1 -> conv4_1
I1210 11:38:11.320461 29638 net.cpp:150] Setting up conv4_1
I1210 11:38:11.320485 29638 net.cpp:157] Top shape: 1 512 75 125 (4800000)
I1210 11:38:11.320489 29638 net.cpp:165] Memory required for data: 1260000108
I1210 11:38:11.320500 29638 layer_factory.hpp:77] Creating layer relu4_1
I1210 11:38:11.320513 29638 net.cpp:106] Creating Layer relu4_1
I1210 11:38:11.320519 29638 net.cpp:454] relu4_1 <- conv4_1
I1210 11:38:11.320526 29638 net.cpp:397] relu4_1 -> conv4_1 (in-place)
I1210 11:38:11.320672 29638 net.cpp:150] Setting up relu4_1
I1210 11:38:11.320682 29638 net.cpp:157] Top shape: 1 512 75 125 (4800000)
I1210 11:38:11.320684 29638 net.cpp:165] Memory required for data: 1279200108
I1210 11:38:11.320688 29638 layer_factory.hpp:77] Creating layer conv4_2
I1210 11:38:11.320698 29638 net.cpp:106] Creating Layer conv4_2
I1210 11:38:11.320701 29638 net.cpp:454] conv4_2 <- conv4_1
I1210 11:38:11.320708 29638 net.cpp:411] conv4_2 -> conv4_2
I1210 11:38:11.326270 29638 net.cpp:150] Setting up conv4_2
I1210 11:38:11.326295 29638 net.cpp:157] Top shape: 1 512 75 125 (4800000)
I1210 11:38:11.326300 29638 net.cpp:165] Memory required for data: 1298400108
I1210 11:38:11.326318 29638 layer_factory.hpp:77] Creating layer relu4_2
I1210 11:38:11.326328 29638 net.cpp:106] Creating Layer relu4_2
I1210 11:38:11.326335 29638 net.cpp:454] relu4_2 <- conv4_2
I1210 11:38:11.326341 29638 net.cpp:397] relu4_2 -> conv4_2 (in-place)
I1210 11:38:11.326503 29638 net.cpp:150] Setting up relu4_2
I1210 11:38:11.326512 29638 net.cpp:157] Top shape: 1 512 75 125 (4800000)
I1210 11:38:11.326515 29638 net.cpp:165] Memory required for data: 1317600108
I1210 11:38:11.326519 29638 layer_factory.hpp:77] Creating layer conv4_3
I1210 11:38:11.326529 29638 net.cpp:106] Creating Layer conv4_3
I1210 11:38:11.326534 29638 net.cpp:454] conv4_3 <- conv4_2
I1210 11:38:11.326541 29638 net.cpp:411] conv4_3 -> conv4_3
I1210 11:38:11.331862 29638 net.cpp:150] Setting up conv4_3
I1210 11:38:11.331892 29638 net.cpp:157] Top shape: 1 512 75 125 (4800000)
I1210 11:38:11.331897 29638 net.cpp:165] Memory required for data: 1336800108
I1210 11:38:11.331907 29638 layer_factory.hpp:77] Creating layer relu4_3
I1210 11:38:11.331918 29638 net.cpp:106] Creating Layer relu4_3
I1210 11:38:11.331926 29638 net.cpp:454] relu4_3 <- conv4_3
I1210 11:38:11.331934 29638 net.cpp:397] relu4_3 -> conv4_3 (in-place)
I1210 11:38:11.332074 29638 net.cpp:150] Setting up relu4_3
I1210 11:38:11.332083 29638 net.cpp:157] Top shape: 1 512 75 125 (4800000)
I1210 11:38:11.332087 29638 net.cpp:165] Memory required for data: 1356000108
I1210 11:38:11.332090 29638 layer_factory.hpp:77] Creating layer pool4
I1210 11:38:11.332098 29638 net.cpp:106] Creating Layer pool4
I1210 11:38:11.332103 29638 net.cpp:454] pool4 <- conv4_3
I1210 11:38:11.332109 29638 net.cpp:411] pool4 -> pool4
I1210 11:38:11.332146 29638 net.cpp:150] Setting up pool4
I1210 11:38:11.332154 29638 net.cpp:157] Top shape: 1 512 38 63 (1225728)
I1210 11:38:11.332157 29638 net.cpp:165] Memory required for data: 1360903020
I1210 11:38:11.332160 29638 layer_factory.hpp:77] Creating layer conv5_1
I1210 11:38:11.332170 29638 net.cpp:106] Creating Layer conv5_1
I1210 11:38:11.332175 29638 net.cpp:454] conv5_1 <- pool4
I1210 11:38:11.332180 29638 net.cpp:411] conv5_1 -> conv5_1
I1210 11:38:11.337345 29638 net.cpp:150] Setting up conv5_1
I1210 11:38:11.337373 29638 net.cpp:157] Top shape: 1 512 38 63 (1225728)
I1210 11:38:11.337378 29638 net.cpp:165] Memory required for data: 1365805932
I1210 11:38:11.337389 29638 layer_factory.hpp:77] Creating layer relu5_1
I1210 11:38:11.337400 29638 net.cpp:106] Creating Layer relu5_1
I1210 11:38:11.337406 29638 net.cpp:454] relu5_1 <- conv5_1
I1210 11:38:11.337415 29638 net.cpp:397] relu5_1 -> conv5_1 (in-place)
I1210 11:38:11.337862 29638 net.cpp:150] Setting up relu5_1
I1210 11:38:11.337874 29638 net.cpp:157] Top shape: 1 512 38 63 (1225728)
I1210 11:38:11.337877 29638 net.cpp:165] Memory required for data: 1370708844
I1210 11:38:11.337882 29638 layer_factory.hpp:77] Creating layer conv5_2
I1210 11:38:11.337891 29638 net.cpp:106] Creating Layer conv5_2
I1210 11:38:11.337896 29638 net.cpp:454] conv5_2 <- conv5_1
I1210 11:38:11.337903 29638 net.cpp:411] conv5_2 -> conv5_2
I1210 11:38:11.342698 29638 net.cpp:150] Setting up conv5_2
I1210 11:38:11.342733 29638 net.cpp:157] Top shape: 1 512 38 63 (1225728)
I1210 11:38:11.342738 29638 net.cpp:165] Memory required for data: 1375611756
I1210 11:38:11.342749 29638 layer_factory.hpp:77] Creating layer relu5_2
I1210 11:38:11.342761 29638 net.cpp:106] Creating Layer relu5_2
I1210 11:38:11.342767 29638 net.cpp:454] relu5_2 <- conv5_2
I1210 11:38:11.342775 29638 net.cpp:397] relu5_2 -> conv5_2 (in-place)
I1210 11:38:11.343394 29638 net.cpp:150] Setting up relu5_2
I1210 11:38:11.343405 29638 net.cpp:157] Top shape: 1 512 38 63 (1225728)
I1210 11:38:11.343410 29638 net.cpp:165] Memory required for data: 1380514668
I1210 11:38:11.343413 29638 layer_factory.hpp:77] Creating layer conv5_3
I1210 11:38:11.343427 29638 net.cpp:106] Creating Layer conv5_3
I1210 11:38:11.343433 29638 net.cpp:454] conv5_3 <- conv5_2
I1210 11:38:11.343441 29638 net.cpp:411] conv5_3 -> conv5_3
I1210 11:38:11.348649 29638 net.cpp:150] Setting up conv5_3
I1210 11:38:11.348680 29638 net.cpp:157] Top shape: 1 512 38 63 (1225728)
I1210 11:38:11.348683 29638 net.cpp:165] Memory required for data: 1385417580
I1210 11:38:11.348693 29638 layer_factory.hpp:77] Creating layer relu5_3
I1210 11:38:11.348704 29638 net.cpp:106] Creating Layer relu5_3
I1210 11:38:11.348711 29638 net.cpp:454] relu5_3 <- conv5_3
I1210 11:38:11.348716 29638 net.cpp:397] relu5_3 -> conv5_3 (in-place)
I1210 11:38:11.348860 29638 net.cpp:150] Setting up relu5_3
I1210 11:38:11.348870 29638 net.cpp:157] Top shape: 1 512 38 63 (1225728)
I1210 11:38:11.348873 29638 net.cpp:165] Memory required for data: 1390320492
I1210 11:38:11.348876 29638 layer_factory.hpp:77] Creating layer conv5_3_relu5_3_0_split
I1210 11:38:11.348883 29638 net.cpp:106] Creating Layer conv5_3_relu5_3_0_split
I1210 11:38:11.348887 29638 net.cpp:454] conv5_3_relu5_3_0_split <- conv5_3
I1210 11:38:11.348893 29638 net.cpp:411] conv5_3_relu5_3_0_split -> conv5_3_relu5_3_0_split_0
I1210 11:38:11.348901 29638 net.cpp:411] conv5_3_relu5_3_0_split -> conv5_3_relu5_3_0_split_1
I1210 11:38:11.348909 29638 net.cpp:411] conv5_3_relu5_3_0_split -> conv5_3_relu5_3_0_split_2
I1210 11:38:11.348953 29638 net.cpp:150] Setting up conv5_3_relu5_3_0_split
I1210 11:38:11.348960 29638 net.cpp:157] Top shape: 1 512 38 63 (1225728)
I1210 11:38:11.348965 29638 net.cpp:157] Top shape: 1 512 38 63 (1225728)
I1210 11:38:11.348970 29638 net.cpp:157] Top shape: 1 512 38 63 (1225728)
I1210 11:38:11.348973 29638 net.cpp:165] Memory required for data: 1405029228
I1210 11:38:11.348978 29638 layer_factory.hpp:77] Creating layer rpn_conv/3x3
I1210 11:38:11.348987 29638 net.cpp:106] Creating Layer rpn_conv/3x3
I1210 11:38:11.348992 29638 net.cpp:454] rpn_conv/3x3 <- conv5_3_relu5_3_0_split_0
I1210 11:38:11.348999 29638 net.cpp:411] rpn_conv/3x3 -> rpn/output
I1210 11:38:11.405717 29638 net.cpp:150] Setting up rpn_conv/3x3
I1210 11:38:11.405745 29638 net.cpp:157] Top shape: 1 512 38 63 (1225728)
I1210 11:38:11.405750 29638 net.cpp:165] Memory required for data: 1409932140
I1210 11:38:11.405761 29638 layer_factory.hpp:77] Creating layer rpn_relu/3x3
I1210 11:38:11.405771 29638 net.cpp:106] Creating Layer rpn_relu/3x3
I1210 11:38:11.405776 29638 net.cpp:454] rpn_relu/3x3 <- rpn/output
I1210 11:38:11.405784 29638 net.cpp:397] rpn_relu/3x3 -> rpn/output (in-place)
I1210 11:38:11.405930 29638 net.cpp:150] Setting up rpn_relu/3x3
I1210 11:38:11.405938 29638 net.cpp:157] Top shape: 1 512 38 63 (1225728)
I1210 11:38:11.405941 29638 net.cpp:165] Memory required for data: 1414835052
I1210 11:38:11.405946 29638 layer_factory.hpp:77] Creating layer rpn/output_rpn_relu/3x3_0_split
I1210 11:38:11.405952 29638 net.cpp:106] Creating Layer rpn/output_rpn_relu/3x3_0_split
I1210 11:38:11.405956 29638 net.cpp:454] rpn/output_rpn_relu/3x3_0_split <- rpn/output
I1210 11:38:11.405962 29638 net.cpp:411] rpn/output_rpn_relu/3x3_0_split -> rpn/output_rpn_relu/3x3_0_split_0
I1210 11:38:11.405972 29638 net.cpp:411] rpn/output_rpn_relu/3x3_0_split -> rpn/output_rpn_relu/3x3_0_split_1
I1210 11:38:11.406008 29638 net.cpp:150] Setting up rpn/output_rpn_relu/3x3_0_split
I1210 11:38:11.406015 29638 net.cpp:157] Top shape: 1 512 38 63 (1225728)
I1210 11:38:11.406020 29638 net.cpp:157] Top shape: 1 512 38 63 (1225728)
I1210 11:38:11.406023 29638 net.cpp:165] Memory required for data: 1424640876
I1210 11:38:11.406026 29638 layer_factory.hpp:77] Creating layer rpn_cls_score
I1210 11:38:11.406038 29638 net.cpp:106] Creating Layer rpn_cls_score
I1210 11:38:11.406044 29638 net.cpp:454] rpn_cls_score <- rpn/output_rpn_relu/3x3_0_split_0
I1210 11:38:11.406050 29638 net.cpp:411] rpn_cls_score -> rpn_cls_score
I1210 11:38:11.407673 29638 net.cpp:150] Setting up rpn_cls_score
I1210 11:38:11.407685 29638 net.cpp:157] Top shape: 1 30 38 63 (71820)
I1210 11:38:11.407687 29638 net.cpp:165] Memory required for data: 1424928156
I1210 11:38:11.407694 29638 layer_factory.hpp:77] Creating layer rpn_cls_score_rpn_cls_score_0_split
I1210 11:38:11.407702 29638 net.cpp:106] Creating Layer rpn_cls_score_rpn_cls_score_0_split
I1210 11:38:11.407706 29638 net.cpp:454] rpn_cls_score_rpn_cls_score_0_split <- rpn_cls_score
I1210 11:38:11.407711 29638 net.cpp:411] rpn_cls_score_rpn_cls_score_0_split -> rpn_cls_score_rpn_cls_score_0_split_0
I1210 11:38:11.407718 29638 net.cpp:411] rpn_cls_score_rpn_cls_score_0_split -> rpn_cls_score_rpn_cls_score_0_split_1
I1210 11:38:11.407750 29638 net.cpp:150] Setting up rpn_cls_score_rpn_cls_score_0_split
I1210 11:38:11.407757 29638 net.cpp:157] Top shape: 1 30 38 63 (71820)
I1210 11:38:11.407760 29638 net.cpp:157] Top shape: 1 30 38 63 (71820)
I1210 11:38:11.407764 29638 net.cpp:165] Memory required for data: 1425502716
I1210 11:38:11.407768 29638 layer_factory.hpp:77] Creating layer rpn_bbox_pred
I1210 11:38:11.407775 29638 net.cpp:106] Creating Layer rpn_bbox_pred
I1210 11:38:11.407780 29638 net.cpp:454] rpn_bbox_pred <- rpn/output_rpn_relu/3x3_0_split_1
I1210 11:38:11.407788 29638 net.cpp:411] rpn_bbox_pred -> rpn_bbox_pred
I1210 11:38:11.409466 29638 net.cpp:150] Setting up rpn_bbox_pred
I1210 11:38:11.409477 29638 net.cpp:157] Top shape: 1 60 38 63 (143640)
I1210 11:38:11.409482 29638 net.cpp:165] Memory required for data: 1426077276
I1210 11:38:11.409488 29638 layer_factory.hpp:77] Creating layer rpn_bbox_pred_rpn_bbox_pred_0_split
I1210 11:38:11.409495 29638 net.cpp:106] Creating Layer rpn_bbox_pred_rpn_bbox_pred_0_split
I1210 11:38:11.409500 29638 net.cpp:454] rpn_bbox_pred_rpn_bbox_pred_0_split <- rpn_bbox_pred
I1210 11:38:11.409507 29638 net.cpp:411] rpn_bbox_pred_rpn_bbox_pred_0_split -> rpn_bbox_pred_rpn_bbox_pred_0_split_0
I1210 11:38:11.409514 29638 net.cpp:411] rpn_bbox_pred_rpn_bbox_pred_0_split -> rpn_bbox_pred_rpn_bbox_pred_0_split_1
I1210 11:38:11.409548 29638 net.cpp:150] Setting up rpn_bbox_pred_rpn_bbox_pred_0_split
I1210 11:38:11.409556 29638 net.cpp:157] Top shape: 1 60 38 63 (143640)
I1210 11:38:11.409561 29638 net.cpp:157] Top shape: 1 60 38 63 (143640)
I1210 11:38:11.409565 29638 net.cpp:165] Memory required for data: 1427226396
I1210 11:38:11.409569 29638 layer_factory.hpp:77] Creating layer rpn_cls_score_reshape
I1210 11:38:11.409584 29638 net.cpp:106] Creating Layer rpn_cls_score_reshape
I1210 11:38:11.409588 29638 net.cpp:454] rpn_cls_score_reshape <- rpn_cls_score_rpn_cls_score_0_split_0
I1210 11:38:11.409595 29638 net.cpp:411] rpn_cls_score_reshape -> rpn_cls_score_reshape
I1210 11:38:11.409623 29638 net.cpp:150] Setting up rpn_cls_score_reshape
I1210 11:38:11.409631 29638 net.cpp:157] Top shape: 1 2 570 63 (71820)
I1210 11:38:11.409634 29638 net.cpp:165] Memory required for data: 1427513676
I1210 11:38:11.409638 29638 layer_factory.hpp:77] Creating layer rpn_cls_score_reshape_rpn_cls_score_reshape_0_split
I1210 11:38:11.409643 29638 net.cpp:106] Creating Layer rpn_cls_score_reshape_rpn_cls_score_reshape_0_split
I1210 11:38:11.409647 29638 net.cpp:454] rpn_cls_score_reshape_rpn_cls_score_reshape_0_split <- rpn_cls_score_reshape
I1210 11:38:11.409653 29638 net.cpp:411] rpn_cls_score_reshape_rpn_cls_score_reshape_0_split -> rpn_cls_score_reshape_rpn_cls_score_reshape_0_split_0
I1210 11:38:11.409660 29638 net.cpp:411] rpn_cls_score_reshape_rpn_cls_score_reshape_0_split -> rpn_cls_score_reshape_rpn_cls_score_reshape_0_split_1
I1210 11:38:11.409693 29638 net.cpp:150] Setting up rpn_cls_score_reshape_rpn_cls_score_reshape_0_split
I1210 11:38:11.409700 29638 net.cpp:157] Top shape: 1 2 570 63 (71820)
I1210 11:38:11.409705 29638 net.cpp:157] Top shape: 1 2 570 63 (71820)
I1210 11:38:11.409708 29638 net.cpp:165] Memory required for data: 1428088236
I1210 11:38:11.409713 29638 layer_factory.hpp:77] Creating layer rpn-data
I1210 11:38:11.410163 29638 net.cpp:106] Creating Layer rpn-data
I1210 11:38:11.410173 29638 net.cpp:454] rpn-data <- rpn_cls_score_rpn_cls_score_0_split_1
I1210 11:38:11.410181 29638 net.cpp:454] rpn-data <- gt_boxes_input-data_2_split_0
I1210 11:38:11.410185 29638 net.cpp:454] rpn-data <- im_info_input-data_1_split_0
I1210 11:38:11.410190 29638 net.cpp:454] rpn-data <- data_input-data_0_split_1
I1210 11:38:11.410197 29638 net.cpp:411] rpn-data -> rpn_labels
I1210 11:38:11.410205 29638 net.cpp:411] rpn-data -> rpn_bbox_targets
I1210 11:38:11.410214 29638 net.cpp:411] rpn-data -> rpn_bbox_inside_weights
I1210 11:38:11.410223 29638 net.cpp:411] rpn-data -> rpn_bbox_outside_weights
===================================anchor_scales in AnchorTargetLayer:=============(2, 4, 8, 16, 32)
I1210 11:38:11.411442 29638 net.cpp:150] Setting up rpn-data
I1210 11:38:11.411454 29638 net.cpp:157] Top shape: 1 1 570 63 (35910)
I1210 11:38:11.411458 29638 net.cpp:157] Top shape: 1 60 38 63 (143640)
I1210 11:38:11.411463 29638 net.cpp:157] Top shape: 1 60 38 63 (143640)
I1210 11:38:11.411468 29638 net.cpp:157] Top shape: 1 60 38 63 (143640)
I1210 11:38:11.411470 29638 net.cpp:165] Memory required for data: 1429955556
I1210 11:38:11.411474 29638 layer_factory.hpp:77] Creating layer rpn_loss_cls
I1210 11:38:11.411487 29638 net.cpp:106] Creating Layer rpn_loss_cls
I1210 11:38:11.411492 29638 net.cpp:454] rpn_loss_cls <- rpn_cls_score_reshape_rpn_cls_score_reshape_0_split_0
I1210 11:38:11.411497 29638 net.cpp:454] rpn_loss_cls <- rpn_labels
…
I1210 11:38:11.413377 29638 net.cpp:157] Top shape: (1)
I1210 11:38:11.413380 29638 net.cpp:160]     with loss weight 1
I1210 11:38:11.413386 29638 net.cpp:165] Memory required for data: 1429955564
I1210 11:38:11.413390 29638 layer_factory.hpp:77] Creating layer rpn_cls_prob
I1210 11:38:11.413398 29638 net.cpp:106] Creating Layer rpn_cls_prob
I1210 11:38:11.413401 29638 net.cpp:454] rpn_cls_prob <- rpn_cls_score_reshape_rpn_cls_score_reshape_0_split_1
I1210 11:38:11.413408 29638 net.cpp:411] rpn_cls_prob -> rpn_cls_prob
I1210 11:38:11.413607 29638 net.cpp:150] Setting up rpn_cls_prob
I1210 11:38:11.413616 29638 net.cpp:157] Top shape: 1 2 570 63 (71820)
I1210 11:38:11.413619 29638 net.cpp:165] Memory required for data: 1430242844
I1210 11:38:11.413624 29638 layer_factory.hpp:77] Creating layer rpn_cls_prob_reshape
I1210 11:38:11.413631 29638 net.cpp:106] Creating Layer rpn_cls_prob_reshape
I1210 11:38:11.413636 29638 net.cpp:454] rpn_cls_prob_reshape <- rpn_cls_prob
I1210 11:38:11.413643 29638 net.cpp:411] rpn_cls_prob_reshape -> rpn_cls_prob_reshape
I1210 11:38:11.413667 29638 net.cpp:150] Setting up rpn_cls_prob_reshape
I1210 11:38:11.413674 29638 net.cpp:157] Top shape: 1 30 38 63 (71820)
I1210 11:38:11.413678 29638 net.cpp:165] Memory required for data: 1430530124
I1210 11:38:11.413681 29638 layer_factory.hpp:77] Creating layer proposal
I1210 11:38:11.414320 29638 net.cpp:106] Creating Layer proposal
I1210 11:38:11.414330 29638 net.cpp:454] proposal <- rpn_cls_prob_reshape
I1210 11:38:11.414336 29638 net.cpp:454] proposal <- rpn_bbox_pred_rpn_bbox_pred_0_split_1
I1210 11:38:11.414340 29638 net.cpp:454] proposal <- im_info_input-data_1_split_1
I1210 11:38:11.414346 29638 net.cpp:411] proposal -> rpn_rois
=================================anchor_scales in ProposalLayer:=============(2, 4, 8, 16, 32)
I1210 11:38:11.416071 29638 net.cpp:150] Setting up proposal
I1210 11:38:11.416083 29638 net.cpp:157] Top shape: 1 5 (5)
I1210 11:38:11.416087 29638 net.cpp:165] Memory required for data: 1430530144
I1210 11:38:11.416091 29638 layer_factory.hpp:77] Creating layer roi-data
I1210 11:38:11.416338 29638 net.cpp:106] Creating Layer roi-data
I1210 11:38:11.416347 29638 net.cpp:454] roi-data <- rpn_rois
I1210 11:38:11.416353 29638 net.cpp:454] roi-data <- gt_boxes_input-data_2_split_1
I1210 11:38:11.416358 29638 net.cpp:454] roi-data <- im_info_input-data_1_split_2
I1210 11:38:11.416363 29638 net.cpp:454] roi-data <- seg_mask_inds
I1210 11:38:11.416368 29638 net.cpp:454] roi-data <- flipped
I1210 11:38:11.416374 29638 net.cpp:411] roi-data -> rois
I1210 11:38:11.416384 29638 net.cpp:411] roi-data -> labels
I1210 11:38:11.416394 29638 net.cpp:411] roi-data -> bbox_targets
I1210 11:38:11.416401 29638 net.cpp:411] roi-data -> bbox_inside_weights
I1210 11:38:11.416409 29638 net.cpp:411] roi-data -> bbox_outside_weights
I1210 11:38:11.416416 29638 net.cpp:411] roi-data -> mask_targets
I1210 11:38:11.416425 29638 net.cpp:411] roi-data -> rois_pos
I1210 11:38:11.416752 29638 net.cpp:150] Setting up roi-data
I1210 11:38:11.416762 29638 net.cpp:157] Top shape: 1 5 (5)
I1210 11:38:11.416767 29638 net.cpp:157] Top shape: 1 1 (1)
I1210 11:38:11.416772 29638 net.cpp:157] Top shape: 1 72 (72)
I1210 11:38:11.416776 29638 net.cpp:157] Top shape: 1 72 (72)
I1210 11:38:11.416781 29638 net.cpp:157] Top shape: 1 72 (72)
I1210 11:38:11.416785 29638 net.cpp:157] Top shape: 1 244 244 (59536)
I1210 11:38:11.416792 29638 net.cpp:157] Top shape: 1 5 (5)
I1210 11:38:11.416795 29638 net.cpp:165] Memory required for data: 1430769196
I1210 11:38:11.416800 29638 layer_factory.hpp:77] Creating layer roi_pool5
I1210 11:38:11.416806 29638 net.cpp:106] Creating Layer roi_pool5
I1210 11:38:11.416811 29638 net.cpp:454] roi_pool5 <- conv5_3_relu5_3_0_split_1
I1210 11:38:11.416817 29638 net.cpp:454] roi_pool5 <- rois
I1210 11:38:11.416822 29638 net.cpp:411] roi_pool5 -> pool5
I1210 11:38:11.416836 29638 roi_alignment_layer.cpp:32] Spatial scale: 0.0625
I1210 11:38:11.416925 29638 net.cpp:150] Setting up roi_pool5
I1210 11:38:11.416932 29638 net.cpp:157] Top shape: 1 512 7 7 (25088)
I1210 11:38:11.416936 29638 net.cpp:165] Memory required for data: 1430869548
I1210 11:38:11.416940 29638 layer_factory.hpp:77] Creating layer fc6
I1210 11:38:11.416949 29638 net.cpp:106] Creating Layer fc6
I1210 11:38:11.416952 29638 net.cpp:454] fc6 <- pool5
I1210 11:38:11.416960 29638 net.cpp:411] fc6 -> fc6
I1210 11:38:11.571390 29638 net.cpp:150] Setting up fc6
I1210 11:38:11.571430 29638 net.cpp:157] Top shape: 1 4096 (4096)
I1210 11:38:11.571434 29638 net.cpp:165] Memory required for data: 1430885932
I1210 11:38:11.571454 29638 layer_factory.hpp:77] Creating layer relu6
I1210 11:38:11.571466 29638 net.cpp:106] Creating Layer relu6
I1210 11:38:11.571472 29638 net.cpp:454] relu6 <- fc6
I1210 11:38:11.571480 29638 net.cpp:397] relu6 -> fc6 (in-place)
I1210 11:38:11.572177 29638 net.cpp:150] Setting up relu6
I1210 11:38:11.572190 29638 net.cpp:157] Top shape: 1 4096 (4096)
I1210 11:38:11.572193 29638 net.cpp:165] Memory required for data: 1430902316
I1210 11:38:11.572197 29638 layer_factory.hpp:77] Creating layer fc7
I1210 11:38:11.572206 29638 net.cpp:106] Creating Layer fc7
I1210 11:38:11.572211 29638 net.cpp:454] fc7 <- fc6
I1210 11:38:11.572217 29638 net.cpp:411] fc7 -> fc7
I1210 11:38:11.598443 29638 net.cpp:150] Setting up fc7
I1210 11:38:11.598484 29638 net.cpp:157] Top shape: 1 4096 (4096)
I1210 11:38:11.598489 29638 net.cpp:165] Memory required for data: 1430918700
I1210 11:38:11.598501 29638 layer_factory.hpp:77] Creating layer relu7
I1210 11:38:11.598515 29638 net.cpp:106] Creating Layer relu7
I1210 11:38:11.598521 29638 net.cpp:454] relu7 <- fc7
I1210 11:38:11.598528 29638 net.cpp:397] relu7 -> fc7 (in-place)
I1210 11:38:11.598750 29638 net.cpp:150] Setting up relu7
I1210 11:38:11.598759 29638 net.cpp:157] Top shape: 1 4096 (4096)
I1210 11:38:11.598763 29638 net.cpp:165] Memory required for data: 1430935084
I1210 11:38:11.598767 29638 layer_factory.hpp:77] Creating layer fc7_relu7_0_split
I1210 11:38:11.598773 29638 net.cpp:106] Creating Layer fc7_relu7_0_split
I1210 11:38:11.598778 29638 net.cpp:454] fc7_relu7_0_split <- fc7
I1210 11:38:11.598783 29638 net.cpp:411] fc7_relu7_0_split -> fc7_relu7_0_split_0
I1210 11:38:11.598790 29638 net.cpp:411] fc7_relu7_0_split -> fc7_relu7_0_split_1
I1210 11:38:11.598832 29638 net.cpp:150] Setting up fc7_relu7_0_split
I1210 11:38:11.598839 29638 net.cpp:157] Top shape: 1 4096 (4096)
I1210 11:38:11.598845 29638 net.cpp:157] Top shape: 1 4096 (4096)
I1210 11:38:11.598848 29638 net.cpp:165] Memory required for data: 1430967852
I1210 11:38:11.598852 29638 layer_factory.hpp:77] Creating layer cls_score
I1210 11:38:11.598860 29638 net.cpp:106] Creating Layer cls_score
I1210 11:38:11.598866 29638 net.cpp:454] cls_score <- fc7_relu7_0_split_0
I1210 11:38:11.598873 29638 net.cpp:411] cls_score -> cls_score
I1210 11:38:11.600738 29638 net.cpp:150] Setting up cls_score
I1210 11:38:11.600745 29638 net.cpp:157] Top shape: 1 18 (18)
I1210 11:38:11.600749 29638 net.cpp:165] Memory required for data: 1430967924
I1210 11:38:11.600756 29638 layer_factory.hpp:77] Creating layer bbox_pred
I1210 11:38:11.600764 29638 net.cpp:106] Creating Layer bbox_pred
I1210 11:38:11.600767 29638 net.cpp:454] bbox_pred <- fc7_relu7_0_split_1
I1210 11:38:11.600775 29638 net.cpp:411] bbox_pred -> bbox_pred
I1210 11:38:11.607759 29638 net.cpp:150] Setting up bbox_pred
I1210 11:38:11.607767 29638 net.cpp:157] Top shape: 1 72 (72)
I1210 11:38:11.607770 29638 net.cpp:165] Memory required for data: 1430968212
I1210 11:38:11.607776 29638 layer_factory.hpp:77] Creating layer loss_cls
I1210 11:38:11.607784 29638 net.cpp:106] Creating Layer loss_cls
I1210 11:38:11.607789 29638 net.cpp:454] loss_cls <- cls_score
I1210 11:38:11.607794 29638 net.cpp:454] loss_cls <- labels
I1210 11:38:11.607798 29638 net.cpp:411] loss_cls -> loss_cls
…
I1210 11:38:11.608170 29638 net.cpp:165] Memory required for data: 1430968220
I1210 11:38:11.608175 29638 layer_factory.hpp:77] Creating layer roi_pool5_2
I1210 11:38:11.608181 29638 net.cpp:106] Creating Layer roi_pool5_2
I1210 11:38:11.608186 29638 net.cpp:454] roi_pool5_2 <- conv5_3_relu5_3_0_split_2
I1210 11:38:11.608191 29638 net.cpp:454] roi_pool5_2 <- rois_pos
I1210 11:38:11.608196 29638 net.cpp:411] roi_pool5_2 -> pool5_2
I1210 11:38:11.608203 29638 roi_alignment_layer.cpp:32] Spatial scale: 0.0625
I1210 11:38:11.608287 29638 net.cpp:150] Setting up roi_pool5_2
I1210 11:38:11.608294 29638 net.cpp:157] Top shape: 1 512 7 7 (25088)
I1210 11:38:11.608299 29638 net.cpp:165] Memory required for data: 1431068572
I1210 11:38:11.608302 29638 layer_factory.hpp:77] Creating layer pool5_2_conv
I1210 11:38:11.608312 29638 net.cpp:106] Creating Layer pool5_2_conv
I1210 11:38:11.608317 29638 net.cpp:454] pool5_2_conv <- pool5_2
I1210 11:38:11.608323 29638 net.cpp:411] pool5_2_conv -> pool5_2_conv
I1210 11:38:11.616492 29638 net.cpp:150] Setting up pool5_2_conv
I1210 11:38:11.616510 29638 net.cpp:157] Top shape: 1 512 7 7 (25088)
I1210 11:38:11.616513 29638 net.cpp:165] Memory required for data: 1431168924
I1210 11:38:11.616523 29638 layer_factory.hpp:77] Creating layer pool5_2_conv_relu
I1210 11:38:11.616531 29638 net.cpp:106] Creating Layer pool5_2_conv_relu
I1210 11:38:11.616536 29638 net.cpp:454] pool5_2_conv_relu <- pool5_2_conv
I1210 11:38:11.616542 29638 net.cpp:411] pool5_2_conv_relu -> pool5_2_conv_relu
I1210 11:38:11.616703 29638 net.cpp:150] Setting up pool5_2_conv_relu
I1210 11:38:11.616711 29638 net.cpp:157] Top shape: 1 512 7 7 (25088)
I1210 11:38:11.616715 29638 net.cpp:165] Memory required for data: 1431269276
I1210 11:38:11.616719 29638 layer_factory.hpp:77] Creating layer pool5_2_conv2
I1210 11:38:11.616735 29638 net.cpp:106] Creating Layer pool5_2_conv2
I1210 11:38:11.616740 29638 net.cpp:454] pool5_2_conv2 <- pool5_2_conv_relu
I1210 11:38:11.616746 29638 net.cpp:411] pool5_2_conv2 -> pool5_2_conv2
I1210 11:38:11.674576 29638 net.cpp:150] Setting up pool5_2_conv2
I1210 11:38:11.674600 29638 net.cpp:157] Top shape: 1 512 7 7 (25088)
I1210 11:38:11.674604 29638 net.cpp:165] Memory required for data: 1431369628
I1210 11:38:11.674616 29638 layer_factory.hpp:77] Creating layer pool5_2_conv2_relu
I1210 11:38:11.674628 29638 net.cpp:106] Creating Layer pool5_2_conv2_relu
I1210 11:38:11.674633 29638 net.cpp:454] pool5_2_conv2_relu <- pool5_2_conv2
I1210 11:38:11.674640 29638 net.cpp:411] pool5_2_conv2_relu -> pool5_2_conv2_relu
I1210 11:38:11.675115 29638 net.cpp:150] Setting up pool5_2_conv2_relu
I1210 11:38:11.675127 29638 net.cpp:157] Top shape: 1 512 7 7 (25088)
I1210 11:38:11.675132 29638 net.cpp:165] Memory required for data: 1431469980
I1210 11:38:11.675135 29638 layer_factory.hpp:77] Creating layer mask_deconv1
I1210 11:38:11.675145 29638 net.cpp:106] Creating Layer mask_deconv1
I1210 11:38:11.675150 29638 net.cpp:454] mask_deconv1 <- pool5_2_conv2_relu
I1210 11:38:11.675158 29638 net.cpp:411] mask_deconv1 -> mask_deconv1
I1210 11:38:11.676053 29638 net.cpp:150] Setting up mask_deconv1
I1210 11:38:11.676060 29638 net.cpp:157] Top shape: 1 256 30 30 (230400)
I1210 11:38:11.676064 29638 net.cpp:165] Memory required for data: 1432391580
I1210 11:38:11.676070 29638 layer_factory.hpp:77] Creating layer pool5_2_conv3
I1210 11:38:11.676081 29638 net.cpp:106] Creating Layer pool5_2_conv3
I1210 11:38:11.676087 29638 net.cpp:454] pool5_2_conv3 <- mask_deconv1
I1210 11:38:11.676093 29638 net.cpp:411] pool5_2_conv3 -> pool5_2_conv3
I1210 11:38:11.705859 29638 net.cpp:150] Setting up pool5_2_conv3
I1210 11:38:11.705883 29638 net.cpp:157] Top shape: 1 512 30 30 (460800)
I1210 11:38:11.705888 29638 net.cpp:165] Memory required for data: 1434234780
I1210 11:38:11.705899 29638 layer_factory.hpp:77] Creating layer pool5_2_conv3_relu
I1210 11:38:11.705909 29638 net.cpp:106] Creating Layer pool5_2_conv3_relu
I1210 11:38:11.705919 29638 net.cpp:454] pool5_2_conv3_relu <- pool5_2_conv3
I1210 11:38:11.705927 29638 net.cpp:411] pool5_2_conv3_relu -> pool5_2_conv3_relu
I1210 11:38:11.706413 29638 net.cpp:150] Setting up pool5_2_conv3_relu
I1210 11:38:11.706425 29638 net.cpp:157] Top shape: 1 512 30 30 (460800)
I1210 11:38:11.706429 29638 net.cpp:165] Memory required for data: 1436077980
I1210 11:38:11.706434 29638 layer_factory.hpp:77] Creating layer pool5_2_conv4
I1210 11:38:11.706445 29638 net.cpp:106] Creating Layer pool5_2_conv4
I1210 11:38:11.706451 29638 net.cpp:454] pool5_2_conv4 <- pool5_2_conv3_relu
I1210 11:38:11.706459 29638 net.cpp:411] pool5_2_conv4 -> pool5_2_conv4
I1210 11:38:11.763782 29638 net.cpp:150] Setting up pool5_2_conv4
I1210 11:38:11.763815 29638 net.cpp:157] Top shape: 1 512 30 30 (460800)
I1210 11:38:11.763820 29638 net.cpp:165] Memory required for data: 1437921180
I1210 11:38:11.763830 29638 layer_factory.hpp:77] Creating layer pool5_2_conv4_relu
I1210 11:38:11.763842 29638 net.cpp:106] Creating Layer pool5_2_conv4_relu
I1210 11:38:11.763849 29638 net.cpp:454] pool5_2_conv4_relu <- pool5_2_conv4
I1210 11:38:11.763856 29638 net.cpp:411] pool5_2_conv4_relu -> pool5_2_conv4_relu
I1210 11:38:11.764014 29638 net.cpp:150] Setting up pool5_2_conv4_relu
I1210 11:38:11.764022 29638 net.cpp:157] Top shape: 1 512 30 30 (460800)
I1210 11:38:11.764026 29638 net.cpp:165] Memory required for data: 1439764380
I1210 11:38:11.764029 29638 layer_factory.hpp:77] Creating layer mask_deconv2
I1210 11:38:11.764039 29638 net.cpp:106] Creating Layer mask_deconv2
I1210 11:38:11.764044 29638 net.cpp:454] mask_deconv2 <- pool5_2_conv4_relu
I1210 11:38:11.764051 29638 net.cpp:411] mask_deconv2 -> mask_deconv2
I1210 11:38:11.764998 29638 net.cpp:150] Setting up mask_deconv2
I1210 11:38:11.765007 29638 net.cpp:157] Top shape: 1 256 122 122 (3810304)
I1210 11:38:11.765009 29638 net.cpp:165] Memory required for data: 1455005596
I1210 11:38:11.765017 29638 layer_factory.hpp:77] Creating layer pool5_2_conv5
I1210 11:38:11.765028 29638 net.cpp:106] Creating Layer pool5_2_conv5
I1210 11:38:11.765033 29638 net.cpp:454] pool5_2_conv5 <- mask_deconv2
I1210 11:38:11.765039 29638 net.cpp:411] pool5_2_conv5 -> pool5_2_conv5
I1210 11:38:11.795505 29638 net.cpp:150] Setting up pool5_2_conv5
I1210 11:38:11.795528 29638 net.cpp:157] Top shape: 1 512 122 122 (7620608)
I1210 11:38:11.795532 29638 net.cpp:165] Memory required for data: 1485488028
I1210 11:38:11.795542 29638 layer_factory.hpp:77] Creating layer pool5_2_conv5_relu
I1210 11:38:11.795554 29638 net.cpp:106] Creating Layer pool5_2_conv5_relu
I1210 11:38:11.795562 29638 net.cpp:454] pool5_2_conv5_relu <- pool5_2_conv5
I1210 11:38:11.795570 29638 net.cpp:411] pool5_2_conv5_relu -> pool5_2_conv5_relu
I1210 11:38:11.795738 29638 net.cpp:150] Setting up pool5_2_conv5_relu
I1210 11:38:11.795748 29638 net.cpp:157] Top shape: 1 512 122 122 (7620608)
I1210 11:38:11.795752 29638 net.cpp:165] Memory required for data: 1515970460
I1210 11:38:11.795755 29638 layer_factory.hpp:77] Creating layer pool5_2_conv6
I1210 11:38:11.795766 29638 net.cpp:106] Creating Layer pool5_2_conv6
I1210 11:38:11.795773 29638 net.cpp:454] pool5_2_conv6 <- pool5_2_conv5_relu
I1210 11:38:11.795778 29638 net.cpp:411] pool5_2_conv6 -> pool5_2_conv6
I1210 11:38:11.853340 29638 net.cpp:150] Setting up pool5_2_conv6
I1210 11:38:11.853366 29638 net.cpp:157] Top shape: 1 512 122 122 (7620608)
I1210 11:38:11.853370 29638 net.cpp:165] Memory required for data: 1546452892
I1210 11:38:11.853380 29638 layer_factory.hpp:77] Creating layer pool5_2_conv6_relu
I1210 11:38:11.853391 29638 net.cpp:106] Creating Layer pool5_2_conv6_relu
I1210 11:38:11.853399 29638 net.cpp:454] pool5_2_conv6_relu <- pool5_2_conv6
I1210 11:38:11.853407 29638 net.cpp:411] pool5_2_conv6_relu -> pool5_2_conv6_relu
I1210 11:38:11.853565 29638 net.cpp:150] Setting up pool5_2_conv6_relu
I1210 11:38:11.853574 29638 net.cpp:157] Top shape: 1 512 122 122 (7620608)
I1210 11:38:11.853579 29638 net.cpp:165] Memory required for data: 1576935324
I1210 11:38:11.853581 29638 layer_factory.hpp:77] Creating layer mask_deconv3
I1210 11:38:11.853591 29638 net.cpp:106] Creating Layer mask_deconv3
I1210 11:38:11.853597 29638 net.cpp:454] mask_deconv3 <- pool5_2_conv6_relu
I1210 11:38:11.853605 29638 net.cpp:411] mask_deconv3 -> mask_deconv3
I1210 11:38:11.854014 29638 net.cpp:150] Setting up mask_deconv3
I1210 11:38:11.854022 29638 net.cpp:157] Top shape: 1 256 244 244 (15241216)
I1210 11:38:11.854027 29638 net.cpp:165] Memory required for data: 1637900188
I1210 11:38:11.854033 29638 layer_factory.hpp:77] Creating layer mask_score
I1210 11:38:11.854043 29638 net.cpp:106] Creating Layer mask_score
I1210 11:38:11.854048 29638 net.cpp:454] mask_score <- mask_deconv3
I1210 11:38:11.854054 29638 net.cpp:411] mask_score -> mask_score
I1210 11:38:11.855147 29638 net.cpp:150] Setting up mask_score
I1210 11:38:11.855159 29638 net.cpp:157] Top shape: 1 8 244 244 (476288)
I1210 11:38:11.855163 29638 net.cpp:165] Memory required for data: 1639805340
I1210 11:38:11.855170 29638 layer_factory.hpp:77] Creating layer loss_mask
I1210 11:38:11.855180 29638 net.cpp:106] Creating Layer loss_mask
I1210 11:38:11.855186 29638 net.cpp:454] loss_mask <- mask_score
I1210 11:38:11.855191 29638 net.cpp:454] loss_mask <- mask_targets
I1210 11:38:11.855197 29638 net.cpp:411] loss_mask -> loss_mask
…
