…
average_loss: 100
iter_size: 2
I1210 12:32:17.284422  5292 solver.cpp:81] Creating training net from train_net file: models/pascal_voc/VGG16/faster_rcnn_end2end/train.prototxt
I1210 12:32:17.285727  5292 net.cpp:49] Initializing net from parameters: 
name: "VGG_ILSVRC_16_layers"
state {
  phase: TRAIN
}
layer {
  name: "input-data"
  type: "Python"
  top: "data"
  top: "im_info"
  top: "gt_boxes"
  top: "seg_mask_inds"
  top: "flipped"
  python_param {
    module: "roi_data_layer.layer"
    layer: "RoIDataLayer"
    param_str: "\'num_classes\': 2"
  }
}
layer {
  name: "conv1_1"
  type: "Convolution"
  bottom: "data"
  top: "conv1_1"
  param {
    lr_mult: 0
    decay_mult: 0
  }
  param {
    lr_mult: 0
    decay_mult: 0
  }
  convolution_param {
    num_output: 64
    pad: 1
    kernel_size: 3
  }
}
layer {
  name: "relu1_1"
  type: "ReLU"
  bottom: "conv1_1"
  top: "conv1_1"
}
layer {
  name: "conv1_2"
  type: "Convolution"
  bottom: "conv1_1"
  top: "conv1_2"
  param {
    lr_mult: 0
    decay_mult: 0
  }
  param {
    lr_mult: 0
    decay_mult: 0
  }
  convolution_param {
    num_output: 64
    pad: 1
    kernel_size: 3
  }
}
layer {
  name: "relu1_2"
  type: "ReLU"
  bottom: "conv1_2"
  top: "conv1_2"
}
layer {
  name: "pool1"
  type: "Pooling"
  bottom: "conv1_2"
  top: "pool1"
  pooling_param {
    pool: MAX
    kernel_size: 2
    stride: 2
  }
}
layer {
  name: "conv2_1"
  type: "Convolution"
  bottom: "pool1"
  top: "conv2_1"
  param {
    lr_mult: 0
    decay_mult: 0
  }
  param {
    lr_mult: 0
    decay_mult: 0
  }
  convolution_param {
    num_output: 128
    pad: 1
    kernel_size: 3
  }
}
layer {
  name: "relu2_1"
  type: "ReLU"
  bottom: "conv2_1"
  top: "conv2_1"
}
layer {
  name: "conv2_2"
  type: "Convolution"
  bottom: "conv2_1"
  top: "conv2_2"
  param {
    lr_mult: 0
    decay_mult: 0
  }
  param {
    lr_mult: 0
    decay_mult: 0
  }
  convolution_param {
    num_output: 128
    pad: 1
    kernel_size: 3
  }
}
layer {
  name: "relu2_2"
  type: "ReLU"
  bottom: "conv2_2"
  top: "conv2_2"
}
layer {
  name: "pool2"
  type: "Pooling"
  bottom: "conv2_2"
  top: "pool2"
  pooling_param {
    pool: MAX
    kernel_size: 2
    stride: 2
  }
}
layer {
  name: "conv3_1"
  type: "Convolution"
  bottom: "pool2"
  top: "conv3_1"
  param {
    lr_mult: 1
  }
  param {
    lr_mult: 2
  }
  convolution_param {
    num_output: 256
    pad: 1
    kernel_size: 3
  }
}
layer {
  name: "relu3_1"
  type: "ReLU"
  bottom: "conv3_1"
  top: "conv3_1"
}
layer {
  name: "conv3_2"
  type: "Convolution"
  bottom: "conv3_1"
  top: "conv3_2"
  param {
    lr_mult: 1
  }
  param {
    lr_mult: 2
  }
  convolution_param {
    num_output: 256
    pad: 1
    kernel_size: 3
  }
}
layer {
  name: "relu3_2"
  type: "ReLU"
  bottom: "conv3_2"
  top: "conv3_2"
}
layer {
  name: "conv3_3"
  type: "Convolution"
  bottom: "conv3_2"
  top: "conv3_3"
  param {
    lr_mult: 1
  }
  param {
    lr_mult: 2
  }
  convolution_param {
    num_output: 256
    pad: 1
    kernel_size: 3
  }
}
layer {
  name: "relu3_3"
  type: "ReLU"
  bottom: "conv3_3"
  top: "conv3_3"
}
layer {
  name: "pool3"
  type: "Pooling"
  bottom: "conv3_3"
  top: "pool3"
  pooling_param {
    pool: MAX
    kernel_size: 2
    stride: 2
  }
}
layer {
  name: "conv4_1"
  type: "Convolution"
  bottom: "pool3"
  top: "conv4_1"
  param {
    lr_mult: 1
  }
  param {
    lr_mult: 2
  }
  convolution_param {
    num_output: 512
    pad: 1
    kernel_size: 3
  }
}
layer {
  name: "relu4_1"
  type: "ReLU"
  bottom: "conv4_1"
  top: "conv4_1"
}
layer {
  name: "conv4_2"
  type: "Convolution"
  bottom: "conv4_1"
  top: "conv4_2"
  param {
    lr_mult: 1
  }
  param {
    lr_mult: 2
  }
  convolution_param {
    num_output: 512
    pad: 1
    kernel_size: 3
  }
}
layer {
  name: "relu4_2"
  type: "ReLU"
  bottom: "conv4_2"
  top: "conv4_2"
}
layer {
  name: "conv4_3"
  type: "Convolution"
  bottom: "conv4_2"
  top: "conv4_3"
  param {
    lr_mult: 1
  }
  param {
    lr_mult: 2
  }
  convolution_param {
    num_output: 512
    pad: 1
    kernel_size: 3
  }
}
layer {
  name: "relu4_3"
  type: "ReLU"
  bottom: "conv4_3"
  top: "conv4_3"
}
layer {
  name: "pool4"
  type: "Pooling"
  bottom: "conv4_3"
  top: "pool4"
  pooling_param {
    pool: MAX
    kernel_size: 2
    stride: 2
  }
}
layer {
  name: "conv5_1"
  type: "Convolution"
  bottom: "pool4"
  top: "conv5_1"
  param {
    lr_mult: 1
  }
  param {
    lr_mult: 2
  }
  convolution_param {
    num_output: 512
    pad: 1
    kernel_size: 3
  }
}
layer {
  name: "relu5_1"
  type: "ReLU"
  bottom: "conv5_1"
  top: "conv5_1"
}
layer {
  name: "conv5_2"
  type: "Convolution"
  bottom: "conv5_1"
  top: "conv5_2"
  param {
    lr_mult: 1
  }
  param {
    lr_mult: 2
  }
  convolution_param {
    num_output: 512
    pad: 1
    kernel_size: 3
  }
}
layer {
  name: "relu5_2"
  type: "ReLU"
  bottom: "conv5_2"
  top: "conv5_2"
}
layer {
  name: "conv5_3"
  type: "Convolution"
  bottom: "conv5_2"
  top: "conv5_3"
  param {
    lr_mult: 1
  }
  param {
    lr_mult: 2
  }
  convolution_param {
    num_output: 512
    pad: 1
    kernel_size: 3
  }
}
layer {
  name: "relu5_3"
  type: "ReLU"
  bottom: "conv5_3"
  top: "conv5_3"
}
layer {
  name: "rpn_conv/3x3"
  type: "Convolution"
  bottom: "conv5_3"
  top: "rpn/output"
  param {
    lr_mult: 1
  }
  param {
    lr_mult: 2
  }
  convolution_param {
    num_output: 512
    pad: 1
    kernel_size: 3
    stride: 1
    weight_filler {
      type: "gaussian"
      std: 0.01
    }
    bias_filler {
      type: "constant"
      value: 0
    }
  }
}
layer {
  name: "rpn_relu/3x3"
  type: "ReLU"
  bottom: "rpn/output"
  top: "rpn/output"
}
layer {
  name: "rpn_cls_score"
  type: "Convolution"
  bottom: "rpn/output"
  top: "rpn_cls_score"
  param {
    lr_mult: 1
  }
  param {
    lr_mult: 2
  }
  convolution_param {
    num_output: 30
    pad: 0
    kernel_size: 1
    stride: 1
    weight_filler {
      type: "gaussian"
      std: 0.01
    }
    bias_filler {
      type: "constant"
      value: 0
    }
  }
}
layer {
  name: "rpn_bbox_pred"
  type: "Convolution"
  bottom: "rpn/output"
  top: "rpn_bbox_pred"
  param {
    lr_mult: 1
  }
  param {
    lr_mult: 2
  }
  convolution_param {
    num_output: 60
    pad: 0
    kernel_size: 1
    stride: 1
    weight_filler {
      type: "gaussian"
      std: 0.01
    }
    bias_filler {
      type: "constant"
      value: 0
    }
  }
}
layer {
  name: "rpn_cls_score_reshape"
  type: "Reshape"
  bottom: "rpn_cls_score"
  top: "rpn_cls_score_reshape"
  reshape_param {
    shape {
      dim: 0
      dim: 2
      dim: -1
      dim: 0
    }
  }
}
layer {
  name: "rpn-data"
  type: "Python"
  bottom: "rpn_cls_score"
  bottom: "gt_boxes"
  bottom: "im_info"
  bottom: "data"
  top: "rpn_labels"
  top: "rpn_bbox_targets"
  top: "rpn_bbox_inside_weights"
  top: "rpn_bbox_outside_weights"
  python_param {
    module: "rpn.anchor_target_layer"
    layer: "AnchorTargetLayer"
    param_str: "\'feat_stride\': 16 \n\'scales\': !!python/tuple [2, 4, 8, 16, 32]"
  }
}
layer {
  name: "rpn_loss_cls"
  type: "SoftmaxWithLoss"
  bottom: "rpn_cls_score_reshape"
  bottom: "rpn_labels"
  top: "rpn_cls_loss"
  loss_weight: 1
  propagate_down: true
  propagate_down: false
  loss_param {
    ignore_label: -1
    normalize: true
  }
}
layer {
  name: "rpn_loss_bbox"
  type: "SmoothL1Loss"
  bottom: "rpn_bbox_pred"
  bottom: "rpn_bbox_targets"
  bottom: "rpn_bbox_inside_weights"
  bottom: "rpn_bbox_outside_weights"
  top: "rpn_loss_bbox"
  loss_weight: 1
  smooth_l1_loss_param {
    sigma: 3
  }
}
layer {
  name: "rpn_cls_prob"
  type: "Softmax"
  bottom: "rpn_cls_score_reshape"
  top: "rpn_cls_prob"
}
layer {
  name: "rpn_cls_prob_reshape"
  type: "Reshape"
  bottom: "rpn_cls_prob"
  top: "rpn_cls_prob_reshape"
  reshape_param {
    shape {
      dim: 0
      dim: 30
      dim: -1
      dim: 0
    }
  }
}
layer {
  name: "proposal"
  type: "Python"
  bottom: "rpn_cls_prob_reshape"
  bottom: "rpn_bbox_pred"
  bottom: "im_info"
  top: "rpn_rois"
  python_param {
    module: "rpn.proposal_layer"
    layer: "ProposalLayer"
    param_str: "\'feat_stride\': 16 \n\'scales\': !!python/tuple [2, 4, 8, 16, 32]"
  }
}
layer {
  name: "roi-data"
  type: "Python"
  bottom: "rpn_rois"
  bottom: "gt_boxes"
  bottom: "im_info"
  bottom: "seg_mask_inds"
  bottom: "flipped"
  top: "rois"
  top: "labels"
  top: "bbox_targets"
  top: "bbox_inside_weights"
  top: "bbox_outside_weights"
  top: "mask_targets"
  top: "rois_pos"
  python_param {
    module: "rpn.proposal_target_layer"
    layer: "ProposalTargetLayer"
    param_str: "\'num_classes\': 2"
  }
}
layer {
  name: "roi_pool5"
  type: "ROIAlignment"
  bottom: "conv5_3"
  bottom: "rois"
  top: "pool5"
  roi_alignment_param {
    pooled_h: 7
    pooled_w: 7
    spatial_scale: 0.0625
  }
}
layer {
  name: "fc6"
  type: "InnerProduct"
  bottom: "pool5"
  top: "fc6"
  param {
    lr_mult: 1
  }
  param {
    lr_mult: 2
  }
  inner_product_param {
    num_output: 4096
  }
}
layer {
  name: "relu6"
  type: "ReLU"
  bottom: "fc6"
  top: "fc6"
}
layer {
  name: "fc7"
  type: "InnerProduct"
  bottom: "fc6"
  top: "fc7"
  param {
    lr_mult: 1
  }
  param {
    lr_mult: 2
  }
  inner_product_param {
    num_output: 4096
  }
}
layer {
  name: "relu7"
  type: "ReLU"
  bottom: "fc7"
  top: "fc7"
}
layer {
  name: "cls_score"
  type: "InnerProduct"
  bottom: "fc7"
  top: "cls_score"
  param {
    lr_mult: 1
  }
  param {
    lr_mult: 2
  }
  inner_product_param {
    num_output: 2
    weight_filler {
      type: "gaussian"
      std: 0.01
    }
    bias_filler {
      type: "constant"
      value: 0
    }
  }
}
layer {
  name: "bbox_pred"
  type: "InnerProduct"
  bottom: "fc7"
  top: "bbox_pred"
  param {
    lr_mult: 1
  }
  param {
    lr_mult: 2
  }
  inner_product_param {
    num_output: 8
    weight_filler {
      type: "gaussian"
      std: 0.001
    }
    bias_filler {
      type: "constant"
      value: 0
    }
  }
}
layer {
  name: "loss_cls"
  type: "SoftmaxWithLoss"
  bottom: "cls_score"
  bottom: "labels"
  top: "loss_cls"
  loss_weight: 3
  propagate_down: true
  propagate_down: false
}
layer {
  name: "loss_bbox"
  type: "SmoothL1Loss"
  bottom: "bbox_pred"
  bottom: "bbox_targets"
  bottom: "bbox_inside_weights"
  bottom: "bbox_outside_weights"
  top: "loss_bbox"
  loss_weight: 2
}
layer {
  name: "roi_pool5_2"
  type: "ROIAlignment"
  bottom: "conv5_3"
  bottom: "rois_pos"
  top: "pool5_2"
  roi_alignment_param {
    pooled_h: 7
    pooled_w: 7
    spatial_scale: 0.0625
  }
}
layer {
  name: "pool5_2_conv"
  type: "Convolution"
  bottom: "pool5_2"
  top: "pool5_2_conv"
  param {
    lr_mult: 1
    decay_mult: 1
  }
  param {
    lr_mult: 2
    decay_mult: 0
  }
  convolution_param {
    num_output: 512
    pad: 0
    kernel_size: 1
    weight_filler {
      type: "gaussian"
      std: 0.01
    }
    bias_filler {
      type: "constant"
      value: 0
    }
  }
}
layer {
  name: "pool5_2_conv_relu"
  type: "ReLU"
  bottom: "pool5_2_conv"
  top: "pool5_2_conv_relu"
}
layer {
  name: "pool5_2_conv2"
  type: "Convolution"
  bottom: "pool5_2_conv_relu"
  top: "pool5_2_conv2"
  param {
    lr_mult: 1
    decay_mult: 1
  }
  param {
    lr_mult: 2
    decay_mult: 0
  }
  convolution_param {
    num_output: 512
    pad: 1
    kernel_size: 3
    stride: 1
    weight_filler {
      type: "gaussian"
      std: 0.01
    }
    bias_filler {
      type: "constant"
      value: 0
    }
  }
}
layer {
  name: "pool5_2_conv2_relu"
  type: "ReLU"
  bottom: "pool5_2_conv2"
  top: "pool5_2_conv2_relu"
}
layer {
  name: "mask_deconv1"
  type: "Deconvolution"
  bottom: "pool5_2_conv2_relu"
  top: "mask_deconv1"
  param {
    lr_mult: 1
    decay_mult: 1
  }
  param {
    lr_mult: 2
    decay_mult: 0
  }
  convolution_param {
    num_output: 256
    pad: 1
    kernel_size: 8
    group: 256
    stride: 4
    weight_filler {
      type: "bilinear"
    }
  }
}
layer {
  name: "pool5_2_conv3"
  type: "Convolution"
  bottom: "mask_deconv1"
  top: "pool5_2_conv3"
  param {
    lr_mult: 1
    decay_mult: 1
  }
  param {
    lr_mult: 2
    decay_mult: 0
  }
  convolution_param {
    num_output: 512
    pad: 1
    kernel_size: 3
    stride: 1
    weight_filler {
      type: "gaussian"
      std: 0.01
    }
    bias_filler {
      type: "constant"
      value: 0
    }
  }
}
layer {
  name: "pool5_2_conv3_relu"
  type: "ReLU"
  bottom: "pool5_2_conv3"
  top: "pool5_2_conv3_relu"
}
layer {
  name: "pool5_2_conv4"
  type: "Convolution"
  bottom: "pool5_2_conv3_relu"
  top: "pool5_2_conv4"
  param {
    lr_mult: 1
    decay_mult: 1
  }
  param {
    lr_mult: 2
    decay_mult: 0
  }
  convolution_param {
    num_output: 512
    pad: 1
    kernel_size: 3
    stride: 1
    weight_filler {
      type: "gaussian"
      std: 0.01
    }
    bias_filler {
      type: "constant"
      value: 0
    }
  }
}
layer {
  name: "pool5_2_conv4_relu"
  type: "ReLU"
  bottom: "pool5_2_conv4"
  top: "pool5_2_conv4_relu"
}
layer {
  name: "mask_deconv2"
  type: "Deconvolution"
  bottom: "pool5_2_conv4_relu"
  top: "mask_deconv2"
  param {
    lr_mult: 1
    decay_mult: 1
  }
  param {
    lr_mult: 2
    decay_mult: 0
  }
  convolution_param {
    num_output: 256
    pad: 1
    kernel_size: 8
    group: 256
    stride: 4
    weight_filler {
      type: "bilinear"
    }
  }
}
layer {
  name: "pool5_2_conv5"
  type: "Convolution"
  bottom: "mask_deconv2"
  top: "pool5_2_conv5"
  param {
    lr_mult: 1
    decay_mult: 1
  }
  param {
    lr_mult: 2
    decay_mult: 0
  }
  convolution_param {
    num_output: 512
    pad: 1
    kernel_size: 3
    stride: 1
    weight_filler {
      type: "gaussian"
      std: 0.01
    }
    bias_filler {
      type: "constant"
      value: 0
    }
  }
}
layer {
  name: "pool5_2_conv5_relu"
  type: "ReLU"
  bottom: "pool5_2_conv5"
  top: "pool5_2_conv5_relu"
}
layer {
  name: "pool5_2_conv6"
  type: "Convolution"
  bottom: "pool5_2_conv5_relu"
  top: "pool5_2_conv6"
  param {
    lr_mult: 1
    decay_mult: 1
  }
  param {
    lr_mult: 2
    decay_mult: 0
  }
  convolution_param {
    num_output: 512
    pad: 1
    kernel_size: 3
    stride: 1
    weight_filler {
      type: "gaussian"
      std: 0.01
    }
    bias_filler {
      type: "constant"
      value: 0
    }
  }
}
layer {
  name: "pool5_2_conv6_relu"
  type: "ReLU"
  bottom: "pool5_2_conv6"
  top: "pool5_2_conv6_relu"
}
layer {
  name: "mask_deconv3"
  type: "Deconvolution"
  bottom: "pool5_2_conv6_relu"
  top: "mask_deconv3"
  param {
    lr_mult: 1
    decay_mult: 1
  }
  param {
    lr_mult: 2
    decay_mult: 0
  }
  convolution_param {
    num_output: 256
    pad: 1
    kernel_size: 4
    group: 256
    stride: 2
    weight_filler {
      type: "bilinear"
    }
  }
}
layer {
  name: "mask_score"
  type: "Convolution"
  bottom: "mask_deconv3"
  top: "mask_score"
  param {
    lr_mult: 1
    decay_mult: 1
  }
  param {
    lr_mult: 2
    decay_mult: 0
  }
  convolution_param {
    num_output: 8
    pad: 0
    kernel_size: 1
    weight_filler {
      type: "gaussian"
      std: 0.01
    }
    bias_filler {
      type: "constant"
      value: 0
    }
  }
}
layer {
  name: "loss_mask"
  type: "SoftmaxWithLoss"
  bottom: "mask_score"
  bottom: "mask_targets"
  top: "loss_mask"
  loss_weight: 3
  propagate_down: true
  propagate_down: false
  loss_param {
    ignore_label: -1
    normalize: true
  }
}
I1210 12:32:17.285966  5292 layer_factory.hpp:77] Creating layer input-data
I1210 12:32:17.296562  5292 net.cpp:106] Creating Layer input-data
I1210 12:32:17.296584  5292 net.cpp:411] input-data -> data
I1210 12:32:17.296593  5292 net.cpp:411] input-data -> im_info
I1210 12:32:17.296599  5292 net.cpp:411] input-data -> gt_boxes
I1210 12:32:17.296604  5292 net.cpp:411] input-data -> seg_mask_inds
I1210 12:32:17.296608  5292 net.cpp:411] input-data -> flipped
RoiDataLayer: name_to_top: {'gt_boxes': 2, 'data': 0, 'seg_mask_inds': 3, 'im_info': 1, 'flipped': 4}
I1210 12:32:17.310524  5292 net.cpp:150] Setting up input-data
I1210 12:32:17.310542  5292 net.cpp:157] Top shape: 1 3 600 1000 (1800000)
I1210 12:32:17.310547  5292 net.cpp:157] Top shape: 1 3 (3)
I1210 12:32:17.310550  5292 net.cpp:157] Top shape: 1 4 (4)
I1210 12:32:17.310554  5292 net.cpp:157] Top shape: 1 2 (2)
I1210 12:32:17.310557  5292 net.cpp:157] Top shape: 1 1 (1)
I1210 12:32:17.310560  5292 net.cpp:165] Memory required for data: 7200040
I1210 12:32:17.310566  5292 layer_factory.hpp:77] Creating layer data_input-data_0_split
I1210 12:32:17.310580  5292 net.cpp:106] Creating Layer data_input-data_0_split
I1210 12:32:17.310585  5292 net.cpp:454] data_input-data_0_split <- data
I1210 12:32:17.310590  5292 net.cpp:411] data_input-data_0_split -> data_input-data_0_split_0
I1210 12:32:17.310598  5292 net.cpp:411] data_input-data_0_split -> data_input-data_0_split_1
I1210 12:32:17.310623  5292 net.cpp:150] Setting up data_input-data_0_split
I1210 12:32:17.310632  5292 net.cpp:157] Top shape: 1 3 600 1000 (1800000)
I1210 12:32:17.310637  5292 net.cpp:157] Top shape: 1 3 600 1000 (1800000)
I1210 12:32:17.310640  5292 net.cpp:165] Memory required for data: 21600040
I1210 12:32:17.310644  5292 layer_factory.hpp:77] Creating layer im_info_input-data_1_split
I1210 12:32:17.310649  5292 net.cpp:106] Creating Layer im_info_input-data_1_split
I1210 12:32:17.310653  5292 net.cpp:454] im_info_input-data_1_split <- im_info
I1210 12:32:17.310658  5292 net.cpp:411] im_info_input-data_1_split -> im_info_input-data_1_split_0
I1210 12:32:17.310665  5292 net.cpp:411] im_info_input-data_1_split -> im_info_input-data_1_split_1
I1210 12:32:17.310672  5292 net.cpp:411] im_info_input-data_1_split -> im_info_input-data_1_split_2
I1210 12:32:17.310708  5292 net.cpp:150] Setting up im_info_input-data_1_split
I1210 12:32:17.310714  5292 net.cpp:157] Top shape: 1 3 (3)
I1210 12:32:17.310719  5292 net.cpp:157] Top shape: 1 3 (3)
I1210 12:32:17.310724  5292 net.cpp:157] Top shape: 1 3 (3)
I1210 12:32:17.310727  5292 net.cpp:165] Memory required for data: 21600076
I1210 12:32:17.310731  5292 layer_factory.hpp:77] Creating layer gt_boxes_input-data_2_split
I1210 12:32:17.310736  5292 net.cpp:106] Creating Layer gt_boxes_input-data_2_split
I1210 12:32:17.310740  5292 net.cpp:454] gt_boxes_input-data_2_split <- gt_boxes
I1210 12:32:17.310747  5292 net.cpp:411] gt_boxes_input-data_2_split -> gt_boxes_input-data_2_split_0
I1210 12:32:17.310755  5292 net.cpp:411] gt_boxes_input-data_2_split -> gt_boxes_input-data_2_split_1
I1210 12:32:17.310788  5292 net.cpp:150] Setting up gt_boxes_input-data_2_split
I1210 12:32:17.310796  5292 net.cpp:157] Top shape: 1 4 (4)
I1210 12:32:17.310802  5292 net.cpp:157] Top shape: 1 4 (4)
I1210 12:32:17.310806  5292 net.cpp:165] Memory required for data: 21600108
I1210 12:32:17.310811  5292 layer_factory.hpp:77] Creating layer conv1_1
I1210 12:32:17.310822  5292 net.cpp:106] Creating Layer conv1_1
I1210 12:32:17.310830  5292 net.cpp:454] conv1_1 <- data_input-data_0_split_0
I1210 12:32:17.310837  5292 net.cpp:411] conv1_1 -> conv1_1
I1210 12:32:17.501816  5292 net.cpp:150] Setting up conv1_1
I1210 12:32:17.501844  5292 net.cpp:157] Top shape: 1 64 600 1000 (38400000)
I1210 12:32:17.501848  5292 net.cpp:165] Memory required for data: 175200108
I1210 12:32:17.501864  5292 layer_factory.hpp:77] Creating layer relu1_1
I1210 12:32:17.501878  5292 net.cpp:106] Creating Layer relu1_1
I1210 12:32:17.501885  5292 net.cpp:454] relu1_1 <- conv1_1
I1210 12:32:17.501891  5292 net.cpp:397] relu1_1 -> conv1_1 (in-place)
I1210 12:32:17.502051  5292 net.cpp:150] Setting up relu1_1
I1210 12:32:17.502061  5292 net.cpp:157] Top shape: 1 64 600 1000 (38400000)
I1210 12:32:17.502064  5292 net.cpp:165] Memory required for data: 328800108
I1210 12:32:17.502068  5292 layer_factory.hpp:77] Creating layer conv1_2
I1210 12:32:17.502079  5292 net.cpp:106] Creating Layer conv1_2
I1210 12:32:17.502084  5292 net.cpp:454] conv1_2 <- conv1_1
I1210 12:32:17.502091  5292 net.cpp:411] conv1_2 -> conv1_2
I1210 12:32:17.504696  5292 net.cpp:150] Setting up conv1_2
I1210 12:32:17.504712  5292 net.cpp:157] Top shape: 1 64 600 1000 (38400000)
I1210 12:32:17.504716  5292 net.cpp:165] Memory required for data: 482400108
I1210 12:32:17.504726  5292 layer_factory.hpp:77] Creating layer relu1_2
I1210 12:32:17.504739  5292 net.cpp:106] Creating Layer relu1_2
I1210 12:32:17.504745  5292 net.cpp:454] relu1_2 <- conv1_2
I1210 12:32:17.504750  5292 net.cpp:397] relu1_2 -> conv1_2 (in-place)
I1210 12:32:17.504904  5292 net.cpp:150] Setting up relu1_2
I1210 12:32:17.504914  5292 net.cpp:157] Top shape: 1 64 600 1000 (38400000)
I1210 12:32:17.504917  5292 net.cpp:165] Memory required for data: 636000108
I1210 12:32:17.504921  5292 layer_factory.hpp:77] Creating layer pool1
I1210 12:32:17.504930  5292 net.cpp:106] Creating Layer pool1
I1210 12:32:17.504935  5292 net.cpp:454] pool1 <- conv1_2
I1210 12:32:17.504940  5292 net.cpp:411] pool1 -> pool1
I1210 12:32:17.504976  5292 net.cpp:150] Setting up pool1
I1210 12:32:17.504984  5292 net.cpp:157] Top shape: 1 64 300 500 (9600000)
I1210 12:32:17.504987  5292 net.cpp:165] Memory required for data: 674400108
I1210 12:32:17.504992  5292 layer_factory.hpp:77] Creating layer conv2_1
I1210 12:32:17.505002  5292 net.cpp:106] Creating Layer conv2_1
I1210 12:32:17.505007  5292 net.cpp:454] conv2_1 <- pool1
I1210 12:32:17.505013  5292 net.cpp:411] conv2_1 -> conv2_1
I1210 12:32:17.507058  5292 net.cpp:150] Setting up conv2_1
I1210 12:32:17.507072  5292 net.cpp:157] Top shape: 1 128 300 500 (19200000)
I1210 12:32:17.507076  5292 net.cpp:165] Memory required for data: 751200108
I1210 12:32:17.507087  5292 layer_factory.hpp:77] Creating layer relu2_1
I1210 12:32:17.507097  5292 net.cpp:106] Creating Layer relu2_1
I1210 12:32:17.507100  5292 net.cpp:454] relu2_1 <- conv2_1
I1210 12:32:17.507108  5292 net.cpp:397] relu2_1 -> conv2_1 (in-place)
I1210 12:32:17.507273  5292 net.cpp:150] Setting up relu2_1
I1210 12:32:17.507283  5292 net.cpp:157] Top shape: 1 128 300 500 (19200000)
I1210 12:32:17.507287  5292 net.cpp:165] Memory required for data: 828000108
I1210 12:32:17.507290  5292 layer_factory.hpp:77] Creating layer conv2_2
I1210 12:32:17.507299  5292 net.cpp:106] Creating Layer conv2_2
I1210 12:32:17.507304  5292 net.cpp:454] conv2_2 <- conv2_1
I1210 12:32:17.507313  5292 net.cpp:411] conv2_2 -> conv2_2
I1210 12:32:17.508664  5292 net.cpp:150] Setting up conv2_2
I1210 12:32:17.508678  5292 net.cpp:157] Top shape: 1 128 300 500 (19200000)
I1210 12:32:17.508682  5292 net.cpp:165] Memory required for data: 904800108
I1210 12:32:17.508689  5292 layer_factory.hpp:77] Creating layer relu2_2
I1210 12:32:17.508697  5292 net.cpp:106] Creating Layer relu2_2
I1210 12:32:17.508702  5292 net.cpp:454] relu2_2 <- conv2_2
I1210 12:32:17.508708  5292 net.cpp:397] relu2_2 -> conv2_2 (in-place)
I1210 12:32:17.508853  5292 net.cpp:150] Setting up relu2_2
I1210 12:32:17.508862  5292 net.cpp:157] Top shape: 1 128 300 500 (19200000)
I1210 12:32:17.508865  5292 net.cpp:165] Memory required for data: 981600108
I1210 12:32:17.508869  5292 layer_factory.hpp:77] Creating layer pool2
I1210 12:32:17.508877  5292 net.cpp:106] Creating Layer pool2
I1210 12:32:17.508882  5292 net.cpp:454] pool2 <- conv2_2
I1210 12:32:17.508888  5292 net.cpp:411] pool2 -> pool2
I1210 12:32:17.508931  5292 net.cpp:150] Setting up pool2
I1210 12:32:17.508940  5292 net.cpp:157] Top shape: 1 128 150 250 (4800000)
I1210 12:32:17.508944  5292 net.cpp:165] Memory required for data: 1000800108
I1210 12:32:17.508947  5292 layer_factory.hpp:77] Creating layer conv3_1
I1210 12:32:17.508956  5292 net.cpp:106] Creating Layer conv3_1
I1210 12:32:17.508962  5292 net.cpp:454] conv3_1 <- pool2
I1210 12:32:17.508970  5292 net.cpp:411] conv3_1 -> conv3_1
I1210 12:32:17.511020  5292 net.cpp:150] Setting up conv3_1
I1210 12:32:17.511034  5292 net.cpp:157] Top shape: 1 256 150 250 (9600000)
I1210 12:32:17.511036  5292 net.cpp:165] Memory required for data: 1039200108
I1210 12:32:17.511047  5292 layer_factory.hpp:77] Creating layer relu3_1
I1210 12:32:17.511055  5292 net.cpp:106] Creating Layer relu3_1
I1210 12:32:17.511061  5292 net.cpp:454] relu3_1 <- conv3_1
I1210 12:32:17.511067  5292 net.cpp:397] relu3_1 -> conv3_1 (in-place)
I1210 12:32:17.511463  5292 net.cpp:150] Setting up relu3_1
I1210 12:32:17.511477  5292 net.cpp:157] Top shape: 1 256 150 250 (9600000)
I1210 12:32:17.511481  5292 net.cpp:165] Memory required for data: 1077600108
I1210 12:32:17.511484  5292 layer_factory.hpp:77] Creating layer conv3_2
I1210 12:32:17.511497  5292 net.cpp:106] Creating Layer conv3_2
I1210 12:32:17.511502  5292 net.cpp:454] conv3_2 <- conv3_1
I1210 12:32:17.511507  5292 net.cpp:411] conv3_2 -> conv3_2
I1210 12:32:17.513522  5292 net.cpp:150] Setting up conv3_2
I1210 12:32:17.513537  5292 net.cpp:157] Top shape: 1 256 150 250 (9600000)
I1210 12:32:17.513541  5292 net.cpp:165] Memory required for data: 1116000108
I1210 12:32:17.513550  5292 layer_factory.hpp:77] Creating layer relu3_2
I1210 12:32:17.513557  5292 net.cpp:106] Creating Layer relu3_2
I1210 12:32:17.513562  5292 net.cpp:454] relu3_2 <- conv3_2
I1210 12:32:17.513567  5292 net.cpp:397] relu3_2 -> conv3_2 (in-place)
I1210 12:32:17.513989  5292 net.cpp:150] Setting up relu3_2
I1210 12:32:17.514001  5292 net.cpp:157] Top shape: 1 256 150 250 (9600000)
I1210 12:32:17.514004  5292 net.cpp:165] Memory required for data: 1154400108
I1210 12:32:17.514008  5292 layer_factory.hpp:77] Creating layer conv3_3
I1210 12:32:17.514019  5292 net.cpp:106] Creating Layer conv3_3
I1210 12:32:17.514024  5292 net.cpp:454] conv3_3 <- conv3_2
I1210 12:32:17.514030  5292 net.cpp:411] conv3_3 -> conv3_3
I1210 12:32:17.517334  5292 net.cpp:150] Setting up conv3_3
I1210 12:32:17.517351  5292 net.cpp:157] Top shape: 1 256 150 250 (9600000)
I1210 12:32:17.517355  5292 net.cpp:165] Memory required for data: 1192800108
I1210 12:32:17.517364  5292 layer_factory.hpp:77] Creating layer relu3_3
I1210 12:32:17.517371  5292 net.cpp:106] Creating Layer relu3_3
I1210 12:32:17.517379  5292 net.cpp:454] relu3_3 <- conv3_3
I1210 12:32:17.517386  5292 net.cpp:397] relu3_3 -> conv3_3 (in-place)
I1210 12:32:17.517541  5292 net.cpp:150] Setting up relu3_3
I1210 12:32:17.517550  5292 net.cpp:157] Top shape: 1 256 150 250 (9600000)
I1210 12:32:17.517554  5292 net.cpp:165] Memory required for data: 1231200108
I1210 12:32:17.517557  5292 layer_factory.hpp:77] Creating layer pool3
I1210 12:32:17.517565  5292 net.cpp:106] Creating Layer pool3
I1210 12:32:17.517571  5292 net.cpp:454] pool3 <- conv3_3
I1210 12:32:17.517577  5292 net.cpp:411] pool3 -> pool3
I1210 12:32:17.517614  5292 net.cpp:150] Setting up pool3
I1210 12:32:17.517622  5292 net.cpp:157] Top shape: 1 256 75 125 (2400000)
I1210 12:32:17.517626  5292 net.cpp:165] Memory required for data: 1240800108
I1210 12:32:17.517628  5292 layer_factory.hpp:77] Creating layer conv4_1
I1210 12:32:17.517638  5292 net.cpp:106] Creating Layer conv4_1
I1210 12:32:17.517643  5292 net.cpp:454] conv4_1 <- pool3
I1210 12:32:17.517649  5292 net.cpp:411] conv4_1 -> conv4_1
I1210 12:32:17.522325  5292 net.cpp:150] Setting up conv4_1
I1210 12:32:17.522352  5292 net.cpp:157] Top shape: 1 512 75 125 (4800000)
I1210 12:32:17.522356  5292 net.cpp:165] Memory required for data: 1260000108
I1210 12:32:17.522367  5292 layer_factory.hpp:77] Creating layer relu4_1
I1210 12:32:17.522380  5292 net.cpp:106] Creating Layer relu4_1
I1210 12:32:17.522387  5292 net.cpp:454] relu4_1 <- conv4_1
I1210 12:32:17.522395  5292 net.cpp:397] relu4_1 -> conv4_1 (in-place)
I1210 12:32:17.522549  5292 net.cpp:150] Setting up relu4_1
I1210 12:32:17.522558  5292 net.cpp:157] Top shape: 1 512 75 125 (4800000)
I1210 12:32:17.522562  5292 net.cpp:165] Memory required for data: 1279200108
I1210 12:32:17.522567  5292 layer_factory.hpp:77] Creating layer conv4_2
I1210 12:32:17.522575  5292 net.cpp:106] Creating Layer conv4_2
I1210 12:32:17.522581  5292 net.cpp:454] conv4_2 <- conv4_1
I1210 12:32:17.522595  5292 net.cpp:411] conv4_2 -> conv4_2
I1210 12:32:17.528132  5292 net.cpp:150] Setting up conv4_2
I1210 12:32:17.528157  5292 net.cpp:157] Top shape: 1 512 75 125 (4800000)
I1210 12:32:17.528161  5292 net.cpp:165] Memory required for data: 1298400108
I1210 12:32:17.528177  5292 layer_factory.hpp:77] Creating layer relu4_2
I1210 12:32:17.528187  5292 net.cpp:106] Creating Layer relu4_2
I1210 12:32:17.528195  5292 net.cpp:454] relu4_2 <- conv4_2
I1210 12:32:17.528201  5292 net.cpp:397] relu4_2 -> conv4_2 (in-place)
I1210 12:32:17.528352  5292 net.cpp:150] Setting up relu4_2
I1210 12:32:17.528362  5292 net.cpp:157] Top shape: 1 512 75 125 (4800000)
I1210 12:32:17.528367  5292 net.cpp:165] Memory required for data: 1317600108
I1210 12:32:17.528370  5292 layer_factory.hpp:77] Creating layer conv4_3
I1210 12:32:17.528378  5292 net.cpp:106] Creating Layer conv4_3
I1210 12:32:17.528383  5292 net.cpp:454] conv4_3 <- conv4_2
I1210 12:32:17.528389  5292 net.cpp:411] conv4_3 -> conv4_3
I1210 12:32:17.533895  5292 net.cpp:150] Setting up conv4_3
I1210 12:32:17.533922  5292 net.cpp:157] Top shape: 1 512 75 125 (4800000)
I1210 12:32:17.533926  5292 net.cpp:165] Memory required for data: 1336800108
I1210 12:32:17.533937  5292 layer_factory.hpp:77] Creating layer relu4_3
I1210 12:32:17.533951  5292 net.cpp:106] Creating Layer relu4_3
I1210 12:32:17.533958  5292 net.cpp:454] relu4_3 <- conv4_3
I1210 12:32:17.533965  5292 net.cpp:397] relu4_3 -> conv4_3 (in-place)
I1210 12:32:17.534112  5292 net.cpp:150] Setting up relu4_3
I1210 12:32:17.534121  5292 net.cpp:157] Top shape: 1 512 75 125 (4800000)
I1210 12:32:17.534124  5292 net.cpp:165] Memory required for data: 1356000108
I1210 12:32:17.534128  5292 layer_factory.hpp:77] Creating layer pool4
I1210 12:32:17.534137  5292 net.cpp:106] Creating Layer pool4
I1210 12:32:17.534142  5292 net.cpp:454] pool4 <- conv4_3
I1210 12:32:17.534148  5292 net.cpp:411] pool4 -> pool4
I1210 12:32:17.534186  5292 net.cpp:150] Setting up pool4
I1210 12:32:17.534193  5292 net.cpp:157] Top shape: 1 512 38 63 (1225728)
I1210 12:32:17.534196  5292 net.cpp:165] Memory required for data: 1360903020
I1210 12:32:17.534199  5292 layer_factory.hpp:77] Creating layer conv5_1
I1210 12:32:17.534209  5292 net.cpp:106] Creating Layer conv5_1
I1210 12:32:17.534214  5292 net.cpp:454] conv5_1 <- pool4
I1210 12:32:17.534220  5292 net.cpp:411] conv5_1 -> conv5_1
I1210 12:32:17.540181  5292 net.cpp:150] Setting up conv5_1
I1210 12:32:17.540210  5292 net.cpp:157] Top shape: 1 512 38 63 (1225728)
I1210 12:32:17.540213  5292 net.cpp:165] Memory required for data: 1365805932
I1210 12:32:17.540223  5292 layer_factory.hpp:77] Creating layer relu5_1
I1210 12:32:17.540235  5292 net.cpp:106] Creating Layer relu5_1
I1210 12:32:17.540241  5292 net.cpp:454] relu5_1 <- conv5_1
I1210 12:32:17.540249  5292 net.cpp:397] relu5_1 -> conv5_1 (in-place)
I1210 12:32:17.540699  5292 net.cpp:150] Setting up relu5_1
I1210 12:32:17.540710  5292 net.cpp:157] Top shape: 1 512 38 63 (1225728)
I1210 12:32:17.540714  5292 net.cpp:165] Memory required for data: 1370708844
I1210 12:32:17.540719  5292 layer_factory.hpp:77] Creating layer conv5_2
I1210 12:32:17.540730  5292 net.cpp:106] Creating Layer conv5_2
I1210 12:32:17.540735  5292 net.cpp:454] conv5_2 <- conv5_1
I1210 12:32:17.540742  5292 net.cpp:411] conv5_2 -> conv5_2
I1210 12:32:17.545495  5292 net.cpp:150] Setting up conv5_2
I1210 12:32:17.545528  5292 net.cpp:157] Top shape: 1 512 38 63 (1225728)
I1210 12:32:17.545531  5292 net.cpp:165] Memory required for data: 1375611756
I1210 12:32:17.545542  5292 layer_factory.hpp:77] Creating layer relu5_2
I1210 12:32:17.545557  5292 net.cpp:106] Creating Layer relu5_2
I1210 12:32:17.545562  5292 net.cpp:454] relu5_2 <- conv5_2
I1210 12:32:17.545568  5292 net.cpp:397] relu5_2 -> conv5_2 (in-place)
I1210 12:32:17.546155  5292 net.cpp:150] Setting up relu5_2
I1210 12:32:17.546169  5292 net.cpp:157] Top shape: 1 512 38 63 (1225728)
I1210 12:32:17.546171  5292 net.cpp:165] Memory required for data: 1380514668
I1210 12:32:17.546175  5292 layer_factory.hpp:77] Creating layer conv5_3
I1210 12:32:17.546191  5292 net.cpp:106] Creating Layer conv5_3
I1210 12:32:17.546197  5292 net.cpp:454] conv5_3 <- conv5_2
I1210 12:32:17.546205  5292 net.cpp:411] conv5_3 -> conv5_3
I1210 12:32:17.551522  5292 net.cpp:150] Setting up conv5_3
I1210 12:32:17.551551  5292 net.cpp:157] Top shape: 1 512 38 63 (1225728)
I1210 12:32:17.551555  5292 net.cpp:165] Memory required for data: 1385417580
I1210 12:32:17.551565  5292 layer_factory.hpp:77] Creating layer relu5_3
I1210 12:32:17.551578  5292 net.cpp:106] Creating Layer relu5_3
I1210 12:32:17.551582  5292 net.cpp:454] relu5_3 <- conv5_3
I1210 12:32:17.551589  5292 net.cpp:397] relu5_3 -> conv5_3 (in-place)
I1210 12:32:17.551741  5292 net.cpp:150] Setting up relu5_3
I1210 12:32:17.551750  5292 net.cpp:157] Top shape: 1 512 38 63 (1225728)
I1210 12:32:17.551753  5292 net.cpp:165] Memory required for data: 1390320492
I1210 12:32:17.551757  5292 layer_factory.hpp:77] Creating layer conv5_3_relu5_3_0_split
I1210 12:32:17.551764  5292 net.cpp:106] Creating Layer conv5_3_relu5_3_0_split
I1210 12:32:17.551769  5292 net.cpp:454] conv5_3_relu5_3_0_split <- conv5_3
I1210 12:32:17.551774  5292 net.cpp:411] conv5_3_relu5_3_0_split -> conv5_3_relu5_3_0_split_0
I1210 12:32:17.551784  5292 net.cpp:411] conv5_3_relu5_3_0_split -> conv5_3_relu5_3_0_split_1
I1210 12:32:17.551789  5292 net.cpp:411] conv5_3_relu5_3_0_split -> conv5_3_relu5_3_0_split_2
I1210 12:32:17.551836  5292 net.cpp:150] Setting up conv5_3_relu5_3_0_split
I1210 12:32:17.551844  5292 net.cpp:157] Top shape: 1 512 38 63 (1225728)
I1210 12:32:17.551848  5292 net.cpp:157] Top shape: 1 512 38 63 (1225728)
I1210 12:32:17.551853  5292 net.cpp:157] Top shape: 1 512 38 63 (1225728)
I1210 12:32:17.551856  5292 net.cpp:165] Memory required for data: 1405029228
I1210 12:32:17.551861  5292 layer_factory.hpp:77] Creating layer rpn_conv/3x3
I1210 12:32:17.551873  5292 net.cpp:106] Creating Layer rpn_conv/3x3
I1210 12:32:17.551878  5292 net.cpp:454] rpn_conv/3x3 <- conv5_3_relu5_3_0_split_0
I1210 12:32:17.551885  5292 net.cpp:411] rpn_conv/3x3 -> rpn/output
I1210 12:32:17.610011  5292 net.cpp:150] Setting up rpn_conv/3x3
I1210 12:32:17.610035  5292 net.cpp:157] Top shape: 1 512 38 63 (1225728)
I1210 12:32:17.610039  5292 net.cpp:165] Memory required for data: 1409932140
I1210 12:32:17.610049  5292 layer_factory.hpp:77] Creating layer rpn_relu/3x3
I1210 12:32:17.610062  5292 net.cpp:106] Creating Layer rpn_relu/3x3
I1210 12:32:17.610069  5292 net.cpp:454] rpn_relu/3x3 <- rpn/output
I1210 12:32:17.610075  5292 net.cpp:397] rpn_relu/3x3 -> rpn/output (in-place)
I1210 12:32:17.610222  5292 net.cpp:150] Setting up rpn_relu/3x3
I1210 12:32:17.610231  5292 net.cpp:157] Top shape: 1 512 38 63 (1225728)
I1210 12:32:17.610234  5292 net.cpp:165] Memory required for data: 1414835052
I1210 12:32:17.610239  5292 layer_factory.hpp:77] Creating layer rpn/output_rpn_relu/3x3_0_split
I1210 12:32:17.610244  5292 net.cpp:106] Creating Layer rpn/output_rpn_relu/3x3_0_split
I1210 12:32:17.610249  5292 net.cpp:454] rpn/output_rpn_relu/3x3_0_split <- rpn/output
I1210 12:32:17.610255  5292 net.cpp:411] rpn/output_rpn_relu/3x3_0_split -> rpn/output_rpn_relu/3x3_0_split_0
I1210 12:32:17.610263  5292 net.cpp:411] rpn/output_rpn_relu/3x3_0_split -> rpn/output_rpn_relu/3x3_0_split_1
I1210 12:32:17.610301  5292 net.cpp:150] Setting up rpn/output_rpn_relu/3x3_0_split
I1210 12:32:17.610307  5292 net.cpp:157] Top shape: 1 512 38 63 (1225728)
I1210 12:32:17.610312  5292 net.cpp:157] Top shape: 1 512 38 63 (1225728)
I1210 12:32:17.610316  5292 net.cpp:165] Memory required for data: 1424640876
I1210 12:32:17.610319  5292 layer_factory.hpp:77] Creating layer rpn_cls_score
I1210 12:32:17.610332  5292 net.cpp:106] Creating Layer rpn_cls_score
I1210 12:32:17.610337  5292 net.cpp:454] rpn_cls_score <- rpn/output_rpn_relu/3x3_0_split_0
I1210 12:32:17.610343  5292 net.cpp:411] rpn_cls_score -> rpn_cls_score
I1210 12:32:17.612007  5292 net.cpp:150] Setting up rpn_cls_score
I1210 12:32:17.612018  5292 net.cpp:157] Top shape: 1 30 38 63 (71820)
I1210 12:32:17.612022  5292 net.cpp:165] Memory required for data: 1424928156
I1210 12:32:17.612030  5292 layer_factory.hpp:77] Creating layer rpn_cls_score_rpn_cls_score_0_split
I1210 12:32:17.612037  5292 net.cpp:106] Creating Layer rpn_cls_score_rpn_cls_score_0_split
I1210 12:32:17.612042  5292 net.cpp:454] rpn_cls_score_rpn_cls_score_0_split <- rpn_cls_score
I1210 12:32:17.612053  5292 net.cpp:411] rpn_cls_score_rpn_cls_score_0_split -> rpn_cls_score_rpn_cls_score_0_split_0
I1210 12:32:17.612061  5292 net.cpp:411] rpn_cls_score_rpn_cls_score_0_split -> rpn_cls_score_rpn_cls_score_0_split_1
I1210 12:32:17.612093  5292 net.cpp:150] Setting up rpn_cls_score_rpn_cls_score_0_split
I1210 12:32:17.612102  5292 net.cpp:157] Top shape: 1 30 38 63 (71820)
I1210 12:32:17.612107  5292 net.cpp:157] Top shape: 1 30 38 63 (71820)
I1210 12:32:17.612110  5292 net.cpp:165] Memory required for data: 1425502716
I1210 12:32:17.612114  5292 layer_factory.hpp:77] Creating layer rpn_bbox_pred
I1210 12:32:17.612123  5292 net.cpp:106] Creating Layer rpn_bbox_pred
I1210 12:32:17.612126  5292 net.cpp:454] rpn_bbox_pred <- rpn/output_rpn_relu/3x3_0_split_1
I1210 12:32:17.612133  5292 net.cpp:411] rpn_bbox_pred -> rpn_bbox_pred
I1210 12:32:17.613859  5292 net.cpp:150] Setting up rpn_bbox_pred
I1210 12:32:17.613870  5292 net.cpp:157] Top shape: 1 60 38 63 (143640)
I1210 12:32:17.613873  5292 net.cpp:165] Memory required for data: 1426077276
I1210 12:32:17.613880  5292 layer_factory.hpp:77] Creating layer rpn_bbox_pred_rpn_bbox_pred_0_split
I1210 12:32:17.613888  5292 net.cpp:106] Creating Layer rpn_bbox_pred_rpn_bbox_pred_0_split
I1210 12:32:17.613893  5292 net.cpp:454] rpn_bbox_pred_rpn_bbox_pred_0_split <- rpn_bbox_pred
I1210 12:32:17.613899  5292 net.cpp:411] rpn_bbox_pred_rpn_bbox_pred_0_split -> rpn_bbox_pred_rpn_bbox_pred_0_split_0
I1210 12:32:17.613907  5292 net.cpp:411] rpn_bbox_pred_rpn_bbox_pred_0_split -> rpn_bbox_pred_rpn_bbox_pred_0_split_1
I1210 12:32:17.613941  5292 net.cpp:150] Setting up rpn_bbox_pred_rpn_bbox_pred_0_split
I1210 12:32:17.613950  5292 net.cpp:157] Top shape: 1 60 38 63 (143640)
I1210 12:32:17.613953  5292 net.cpp:157] Top shape: 1 60 38 63 (143640)
I1210 12:32:17.613958  5292 net.cpp:165] Memory required for data: 1427226396
I1210 12:32:17.613961  5292 layer_factory.hpp:77] Creating layer rpn_cls_score_reshape
I1210 12:32:17.613976  5292 net.cpp:106] Creating Layer rpn_cls_score_reshape
I1210 12:32:17.613981  5292 net.cpp:454] rpn_cls_score_reshape <- rpn_cls_score_rpn_cls_score_0_split_0
I1210 12:32:17.613986  5292 net.cpp:411] rpn_cls_score_reshape -> rpn_cls_score_reshape
I1210 12:32:17.614011  5292 net.cpp:150] Setting up rpn_cls_score_reshape
I1210 12:32:17.614018  5292 net.cpp:157] Top shape: 1 2 570 63 (71820)
I1210 12:32:17.614022  5292 net.cpp:165] Memory required for data: 1427513676
I1210 12:32:17.614024  5292 layer_factory.hpp:77] Creating layer rpn_cls_score_reshape_rpn_cls_score_reshape_0_split
I1210 12:32:17.614032  5292 net.cpp:106] Creating Layer rpn_cls_score_reshape_rpn_cls_score_reshape_0_split
I1210 12:32:17.614035  5292 net.cpp:454] rpn_cls_score_reshape_rpn_cls_score_reshape_0_split <- rpn_cls_score_reshape
I1210 12:32:17.614040  5292 net.cpp:411] rpn_cls_score_reshape_rpn_cls_score_reshape_0_split -> rpn_cls_score_reshape_rpn_cls_score_reshape_0_split_0
I1210 12:32:17.614048  5292 net.cpp:411] rpn_cls_score_reshape_rpn_cls_score_reshape_0_split -> rpn_cls_score_reshape_rpn_cls_score_reshape_0_split_1
I1210 12:32:17.614081  5292 net.cpp:150] Setting up rpn_cls_score_reshape_rpn_cls_score_reshape_0_split
I1210 12:32:17.614089  5292 net.cpp:157] Top shape: 1 2 570 63 (71820)
I1210 12:32:17.614094  5292 net.cpp:157] Top shape: 1 2 570 63 (71820)
I1210 12:32:17.614097  5292 net.cpp:165] Memory required for data: 1428088236
I1210 12:32:17.614100  5292 layer_factory.hpp:77] Creating layer rpn-data
I1210 12:32:17.614507  5292 net.cpp:106] Creating Layer rpn-data
I1210 12:32:17.614517  5292 net.cpp:454] rpn-data <- rpn_cls_score_rpn_cls_score_0_split_1
I1210 12:32:17.614524  5292 net.cpp:454] rpn-data <- gt_boxes_input-data_2_split_0
I1210 12:32:17.614529  5292 net.cpp:454] rpn-data <- im_info_input-data_1_split_0
I1210 12:32:17.614534  5292 net.cpp:454] rpn-data <- data_input-data_0_split_1
I1210 12:32:17.614543  5292 net.cpp:411] rpn-data -> rpn_labels
I1210 12:32:17.614552  5292 net.cpp:411] rpn-data -> rpn_bbox_targets
I1210 12:32:17.614562  5292 net.cpp:411] rpn-data -> rpn_bbox_inside_weights
I1210 12:32:17.614572  5292 net.cpp:411] rpn-data -> rpn_bbox_outside_weights
===================================anchor_scales in AnchorTargetLayer:=============(2, 4, 8, 16, 32)
I1210 12:32:17.615850  5292 net.cpp:150] Setting up rpn-data
I1210 12:32:17.615864  5292 net.cpp:157] Top shape: 1 1 570 63 (35910)
I1210 12:32:17.615869  5292 net.cpp:157] Top shape: 1 60 38 63 (143640)
I1210 12:32:17.615875  5292 net.cpp:157] Top shape: 1 60 38 63 (143640)
I1210 12:32:17.615880  5292 net.cpp:157] Top shape: 1 60 38 63 (143640)
I1210 12:32:17.615882  5292 net.cpp:165] Memory required for data: 1429955556
I1210 12:32:17.615886  5292 layer_factory.hpp:77] Creating layer rpn_loss_cls
I1210 12:32:17.615900  5292 net.cpp:106] Creating Layer rpn_loss_cls
I1210 12:32:17.615905  5292 net.cpp:454] rpn_loss_cls <- rpn_cls_score_reshape_rpn_cls_score_reshape_0_split_0
I1210 12:32:17.615909  5292 net.cpp:454] rpn_loss_cls <- rpn_labels
…
I1210 12:32:17.618073  5292 net.cpp:157] Top shape: (1)
I1210 12:32:17.618077  5292 net.cpp:160]     with loss weight 1
I1210 12:32:17.618082  5292 net.cpp:165] Memory required for data: 1429955564
I1210 12:32:17.618084  5292 layer_factory.hpp:77] Creating layer rpn_cls_prob
I1210 12:32:17.618089  5292 net.cpp:106] Creating Layer rpn_cls_prob
I1210 12:32:17.618094  5292 net.cpp:454] rpn_cls_prob <- rpn_cls_score_reshape_rpn_cls_score_reshape_0_split_1
I1210 12:32:17.618098  5292 net.cpp:411] rpn_cls_prob -> rpn_cls_prob
I1210 12:32:17.618299  5292 net.cpp:150] Setting up rpn_cls_prob
I1210 12:32:17.618306  5292 net.cpp:157] Top shape: 1 2 570 63 (71820)
I1210 12:32:17.618309  5292 net.cpp:165] Memory required for data: 1430242844
I1210 12:32:17.618311  5292 layer_factory.hpp:77] Creating layer rpn_cls_prob_reshape
I1210 12:32:17.618316  5292 net.cpp:106] Creating Layer rpn_cls_prob_reshape
I1210 12:32:17.618320  5292 net.cpp:454] rpn_cls_prob_reshape <- rpn_cls_prob
I1210 12:32:17.618325  5292 net.cpp:411] rpn_cls_prob_reshape -> rpn_cls_prob_reshape
I1210 12:32:17.618345  5292 net.cpp:150] Setting up rpn_cls_prob_reshape
I1210 12:32:17.618351  5292 net.cpp:157] Top shape: 1 30 38 63 (71820)
I1210 12:32:17.618353  5292 net.cpp:165] Memory required for data: 1430530124
I1210 12:32:17.618355  5292 layer_factory.hpp:77] Creating layer proposal
I1210 12:32:17.619154  5292 net.cpp:106] Creating Layer proposal
I1210 12:32:17.619164  5292 net.cpp:454] proposal <- rpn_cls_prob_reshape
I1210 12:32:17.619168  5292 net.cpp:454] proposal <- rpn_bbox_pred_rpn_bbox_pred_0_split_1
I1210 12:32:17.619172  5292 net.cpp:454] proposal <- im_info_input-data_1_split_1
I1210 12:32:17.619176  5292 net.cpp:411] proposal -> rpn_rois
=================================anchor_scales in ProposalLayer:=============(2, 4, 8, 16, 32)
I1210 12:32:17.620327  5292 net.cpp:150] Setting up proposal
I1210 12:32:17.620339  5292 net.cpp:157] Top shape: 1 5 (5)
I1210 12:32:17.620342  5292 net.cpp:165] Memory required for data: 1430530144
I1210 12:32:17.620347  5292 layer_factory.hpp:77] Creating layer roi-data
I1210 12:32:17.620590  5292 net.cpp:106] Creating Layer roi-data
I1210 12:32:17.620599  5292 net.cpp:454] roi-data <- rpn_rois
I1210 12:32:17.620604  5292 net.cpp:454] roi-data <- gt_boxes_input-data_2_split_1
I1210 12:32:17.620609  5292 net.cpp:454] roi-data <- im_info_input-data_1_split_2
I1210 12:32:17.620612  5292 net.cpp:454] roi-data <- seg_mask_inds
I1210 12:32:17.620616  5292 net.cpp:454] roi-data <- flipped
I1210 12:32:17.620621  5292 net.cpp:411] roi-data -> rois
I1210 12:32:17.620628  5292 net.cpp:411] roi-data -> labels
I1210 12:32:17.620635  5292 net.cpp:411] roi-data -> bbox_targets
I1210 12:32:17.620640  5292 net.cpp:411] roi-data -> bbox_inside_weights
I1210 12:32:17.620646  5292 net.cpp:411] roi-data -> bbox_outside_weights
I1210 12:32:17.620653  5292 net.cpp:411] roi-data -> mask_targets
I1210 12:32:17.620659  5292 net.cpp:411] roi-data -> rois_pos
I1210 12:32:17.621011  5292 net.cpp:150] Setting up roi-data
I1210 12:32:17.621021  5292 net.cpp:157] Top shape: 1 5 (5)
I1210 12:32:17.621026  5292 net.cpp:157] Top shape: 1 1 (1)
I1210 12:32:17.621028  5292 net.cpp:157] Top shape: 1 8 (8)
I1210 12:32:17.621031  5292 net.cpp:157] Top shape: 1 8 (8)
I1210 12:32:17.621035  5292 net.cpp:157] Top shape: 1 8 (8)
I1210 12:32:17.621038  5292 net.cpp:157] Top shape: 1 244 244 (59536)
I1210 12:32:17.621042  5292 net.cpp:157] Top shape: 1 5 (5)
I1210 12:32:17.621043  5292 net.cpp:165] Memory required for data: 1430768428
I1210 12:32:17.621047  5292 layer_factory.hpp:77] Creating layer roi_pool5
I1210 12:32:17.621058  5292 net.cpp:106] Creating Layer roi_pool5
I1210 12:32:17.621062  5292 net.cpp:454] roi_pool5 <- conv5_3_relu5_3_0_split_1
I1210 12:32:17.621065  5292 net.cpp:454] roi_pool5 <- rois
I1210 12:32:17.621069  5292 net.cpp:411] roi_pool5 -> pool5
I1210 12:32:17.621075  5292 roi_alignment_layer.cpp:32] Spatial scale: 0.0625
I1210 12:32:17.621157  5292 net.cpp:150] Setting up roi_pool5
I1210 12:32:17.621163  5292 net.cpp:157] Top shape: 1 512 7 7 (25088)
I1210 12:32:17.621166  5292 net.cpp:165] Memory required for data: 1430868780
I1210 12:32:17.621168  5292 layer_factory.hpp:77] Creating layer fc6
I1210 12:32:17.621173  5292 net.cpp:106] Creating Layer fc6
I1210 12:32:17.621176  5292 net.cpp:454] fc6 <- pool5
I1210 12:32:17.621181  5292 net.cpp:411] fc6 -> fc6
I1210 12:32:17.795429  5292 net.cpp:150] Setting up fc6
I1210 12:32:17.795467  5292 net.cpp:157] Top shape: 1 4096 (4096)
I1210 12:32:17.795470  5292 net.cpp:165] Memory required for data: 1430885164
I1210 12:32:17.795490  5292 layer_factory.hpp:77] Creating layer relu6
I1210 12:32:17.795501  5292 net.cpp:106] Creating Layer relu6
I1210 12:32:17.795507  5292 net.cpp:454] relu6 <- fc6
I1210 12:32:17.795512  5292 net.cpp:397] relu6 -> fc6 (in-place)
I1210 12:32:17.796247  5292 net.cpp:150] Setting up relu6
I1210 12:32:17.796260  5292 net.cpp:157] Top shape: 1 4096 (4096)
I1210 12:32:17.796265  5292 net.cpp:165] Memory required for data: 1430901548
I1210 12:32:17.796272  5292 layer_factory.hpp:77] Creating layer fc7
I1210 12:32:17.796286  5292 net.cpp:106] Creating Layer fc7
I1210 12:32:17.796290  5292 net.cpp:454] fc7 <- fc6
I1210 12:32:17.796298  5292 net.cpp:411] fc7 -> fc7
I1210 12:32:17.825131  5292 net.cpp:150] Setting up fc7
I1210 12:32:17.825165  5292 net.cpp:157] Top shape: 1 4096 (4096)
I1210 12:32:17.825168  5292 net.cpp:165] Memory required for data: 1430917932
I1210 12:32:17.825178  5292 layer_factory.hpp:77] Creating layer relu7
I1210 12:32:17.825191  5292 net.cpp:106] Creating Layer relu7
I1210 12:32:17.825196  5292 net.cpp:454] relu7 <- fc7
I1210 12:32:17.825204  5292 net.cpp:397] relu7 -> fc7 (in-place)
I1210 12:32:17.825428  5292 net.cpp:150] Setting up relu7
I1210 12:32:17.825435  5292 net.cpp:157] Top shape: 1 4096 (4096)
I1210 12:32:17.825438  5292 net.cpp:165] Memory required for data: 1430934316
I1210 12:32:17.825441  5292 layer_factory.hpp:77] Creating layer fc7_relu7_0_split
I1210 12:32:17.825446  5292 net.cpp:106] Creating Layer fc7_relu7_0_split
I1210 12:32:17.825449  5292 net.cpp:454] fc7_relu7_0_split <- fc7
I1210 12:32:17.825454  5292 net.cpp:411] fc7_relu7_0_split -> fc7_relu7_0_split_0
I1210 12:32:17.825460  5292 net.cpp:411] fc7_relu7_0_split -> fc7_relu7_0_split_1
I1210 12:32:17.825498  5292 net.cpp:150] Setting up fc7_relu7_0_split
I1210 12:32:17.825503  5292 net.cpp:157] Top shape: 1 4096 (4096)
I1210 12:32:17.825507  5292 net.cpp:157] Top shape: 1 4096 (4096)
I1210 12:32:17.825510  5292 net.cpp:165] Memory required for data: 1430967084
I1210 12:32:17.825512  5292 layer_factory.hpp:77] Creating layer cls_score
I1210 12:32:17.825520  5292 net.cpp:106] Creating Layer cls_score
I1210 12:32:17.825522  5292 net.cpp:454] cls_score <- fc7_relu7_0_split_0
I1210 12:32:17.825527  5292 net.cpp:411] cls_score -> cls_score
I1210 12:32:17.825805  5292 net.cpp:150] Setting up cls_score
I1210 12:32:17.825812  5292 net.cpp:157] Top shape: 1 2 (2)
I1210 12:32:17.825814  5292 net.cpp:165] Memory required for data: 1430967092
I1210 12:32:17.825819  5292 layer_factory.hpp:77] Creating layer bbox_pred
I1210 12:32:17.825824  5292 net.cpp:106] Creating Layer bbox_pred
I1210 12:32:17.825827  5292 net.cpp:454] bbox_pred <- fc7_relu7_0_split_1
I1210 12:32:17.825832  5292 net.cpp:411] bbox_pred -> bbox_pred
I1210 12:32:17.826707  5292 net.cpp:150] Setting up bbox_pred
I1210 12:32:17.826714  5292 net.cpp:157] Top shape: 1 8 (8)
I1210 12:32:17.826716  5292 net.cpp:165] Memory required for data: 1430967124
I1210 12:32:17.826721  5292 layer_factory.hpp:77] Creating layer loss_cls
I1210 12:32:17.826728  5292 net.cpp:106] Creating Layer loss_cls
I1210 12:32:17.826731  5292 net.cpp:454] loss_cls <- cls_score
I1210 12:32:17.826735  5292 net.cpp:454] loss_cls <- labels
I1210 12:32:17.826740  5292 net.cpp:411] loss_cls -> loss_cls
…
I1210 12:32:17.827083  5292 net.cpp:165] Memory required for data: 1430967132
I1210 12:32:17.827085  5292 layer_factory.hpp:77] Creating layer roi_pool5_2
I1210 12:32:17.827091  5292 net.cpp:106] Creating Layer roi_pool5_2
I1210 12:32:17.827095  5292 net.cpp:454] roi_pool5_2 <- conv5_3_relu5_3_0_split_2
I1210 12:32:17.827098  5292 net.cpp:454] roi_pool5_2 <- rois_pos
I1210 12:32:17.827103  5292 net.cpp:411] roi_pool5_2 -> pool5_2
I1210 12:32:17.827109  5292 roi_alignment_layer.cpp:32] Spatial scale: 0.0625
I1210 12:32:17.827188  5292 net.cpp:150] Setting up roi_pool5_2
I1210 12:32:17.827193  5292 net.cpp:157] Top shape: 1 512 7 7 (25088)
I1210 12:32:17.827195  5292 net.cpp:165] Memory required for data: 1431067484
I1210 12:32:17.827198  5292 layer_factory.hpp:77] Creating layer pool5_2_conv
I1210 12:32:17.827206  5292 net.cpp:106] Creating Layer pool5_2_conv
I1210 12:32:17.827209  5292 net.cpp:454] pool5_2_conv <- pool5_2
I1210 12:32:17.827214  5292 net.cpp:411] pool5_2_conv -> pool5_2_conv
I1210 12:32:17.834847  5292 net.cpp:150] Setting up pool5_2_conv
I1210 12:32:17.834858  5292 net.cpp:157] Top shape: 1 512 7 7 (25088)
I1210 12:32:17.834861  5292 net.cpp:165] Memory required for data: 1431167836
I1210 12:32:17.834867  5292 layer_factory.hpp:77] Creating layer pool5_2_conv_relu
I1210 12:32:17.834872  5292 net.cpp:106] Creating Layer pool5_2_conv_relu
I1210 12:32:17.834877  5292 net.cpp:454] pool5_2_conv_relu <- pool5_2_conv
I1210 12:32:17.834882  5292 net.cpp:411] pool5_2_conv_relu -> pool5_2_conv_relu
I1210 12:32:17.835043  5292 net.cpp:150] Setting up pool5_2_conv_relu
I1210 12:32:17.835052  5292 net.cpp:157] Top shape: 1 512 7 7 (25088)
I1210 12:32:17.835053  5292 net.cpp:165] Memory required for data: 1431268188
I1210 12:32:17.835057  5292 layer_factory.hpp:77] Creating layer pool5_2_conv2
I1210 12:32:17.835069  5292 net.cpp:106] Creating Layer pool5_2_conv2
I1210 12:32:17.835072  5292 net.cpp:454] pool5_2_conv2 <- pool5_2_conv_relu
I1210 12:32:17.835077  5292 net.cpp:411] pool5_2_conv2 -> pool5_2_conv2
I1210 12:32:17.895386  5292 net.cpp:150] Setting up pool5_2_conv2
I1210 12:32:17.895408  5292 net.cpp:157] Top shape: 1 512 7 7 (25088)
I1210 12:32:17.895411  5292 net.cpp:165] Memory required for data: 1431368540
I1210 12:32:17.895418  5292 layer_factory.hpp:77] Creating layer pool5_2_conv2_relu
I1210 12:32:17.895427  5292 net.cpp:106] Creating Layer pool5_2_conv2_relu
I1210 12:32:17.895432  5292 net.cpp:454] pool5_2_conv2_relu <- pool5_2_conv2
I1210 12:32:17.895437  5292 net.cpp:411] pool5_2_conv2_relu -> pool5_2_conv2_relu
I1210 12:32:17.895908  5292 net.cpp:150] Setting up pool5_2_conv2_relu
I1210 12:32:17.895918  5292 net.cpp:157] Top shape: 1 512 7 7 (25088)
I1210 12:32:17.895921  5292 net.cpp:165] Memory required for data: 1431468892
I1210 12:32:17.895925  5292 layer_factory.hpp:77] Creating layer mask_deconv1
I1210 12:32:17.895933  5292 net.cpp:106] Creating Layer mask_deconv1
I1210 12:32:17.895936  5292 net.cpp:454] mask_deconv1 <- pool5_2_conv2_relu
I1210 12:32:17.895942  5292 net.cpp:411] mask_deconv1 -> mask_deconv1
I1210 12:32:17.896838  5292 net.cpp:150] Setting up mask_deconv1
I1210 12:32:17.896845  5292 net.cpp:157] Top shape: 1 256 30 30 (230400)
I1210 12:32:17.896847  5292 net.cpp:165] Memory required for data: 1432390492
I1210 12:32:17.896852  5292 layer_factory.hpp:77] Creating layer pool5_2_conv3
I1210 12:32:17.896859  5292 net.cpp:106] Creating Layer pool5_2_conv3
I1210 12:32:17.896862  5292 net.cpp:454] pool5_2_conv3 <- mask_deconv1
I1210 12:32:17.896869  5292 net.cpp:411] pool5_2_conv3 -> pool5_2_conv3
I1210 12:32:17.927469  5292 net.cpp:150] Setting up pool5_2_conv3
I1210 12:32:17.927490  5292 net.cpp:157] Top shape: 1 512 30 30 (460800)
I1210 12:32:17.927494  5292 net.cpp:165] Memory required for data: 1434233692
I1210 12:32:17.927501  5292 layer_factory.hpp:77] Creating layer pool5_2_conv3_relu
I1210 12:32:17.927510  5292 net.cpp:106] Creating Layer pool5_2_conv3_relu
I1210 12:32:17.927515  5292 net.cpp:454] pool5_2_conv3_relu <- pool5_2_conv3
I1210 12:32:17.927521  5292 net.cpp:411] pool5_2_conv3_relu -> pool5_2_conv3_relu
I1210 12:32:17.927994  5292 net.cpp:150] Setting up pool5_2_conv3_relu
I1210 12:32:17.928004  5292 net.cpp:157] Top shape: 1 512 30 30 (460800)
I1210 12:32:17.928007  5292 net.cpp:165] Memory required for data: 1436076892
I1210 12:32:17.928010  5292 layer_factory.hpp:77] Creating layer pool5_2_conv4
I1210 12:32:17.928020  5292 net.cpp:106] Creating Layer pool5_2_conv4
I1210 12:32:17.928023  5292 net.cpp:454] pool5_2_conv4 <- pool5_2_conv3_relu
I1210 12:32:17.928028  5292 net.cpp:411] pool5_2_conv4 -> pool5_2_conv4
I1210 12:32:17.986384  5292 net.cpp:150] Setting up pool5_2_conv4
I1210 12:32:17.986407  5292 net.cpp:157] Top shape: 1 512 30 30 (460800)
I1210 12:32:17.986409  5292 net.cpp:165] Memory required for data: 1437920092
I1210 12:32:17.986416  5292 layer_factory.hpp:77] Creating layer pool5_2_conv4_relu
I1210 12:32:17.986425  5292 net.cpp:106] Creating Layer pool5_2_conv4_relu
I1210 12:32:17.986430  5292 net.cpp:454] pool5_2_conv4_relu <- pool5_2_conv4
I1210 12:32:17.986435  5292 net.cpp:411] pool5_2_conv4_relu -> pool5_2_conv4_relu
I1210 12:32:17.986589  5292 net.cpp:150] Setting up pool5_2_conv4_relu
I1210 12:32:17.986596  5292 net.cpp:157] Top shape: 1 512 30 30 (460800)
I1210 12:32:17.986599  5292 net.cpp:165] Memory required for data: 1439763292
I1210 12:32:17.986603  5292 layer_factory.hpp:77] Creating layer mask_deconv2
I1210 12:32:17.986610  5292 net.cpp:106] Creating Layer mask_deconv2
I1210 12:32:17.986613  5292 net.cpp:454] mask_deconv2 <- pool5_2_conv4_relu
I1210 12:32:17.986619  5292 net.cpp:411] mask_deconv2 -> mask_deconv2
I1210 12:32:17.987524  5292 net.cpp:150] Setting up mask_deconv2
I1210 12:32:17.987531  5292 net.cpp:157] Top shape: 1 256 122 122 (3810304)
I1210 12:32:17.987534  5292 net.cpp:165] Memory required for data: 1455004508
I1210 12:32:17.987538  5292 layer_factory.hpp:77] Creating layer pool5_2_conv5
I1210 12:32:17.987546  5292 net.cpp:106] Creating Layer pool5_2_conv5
I1210 12:32:17.987550  5292 net.cpp:454] pool5_2_conv5 <- mask_deconv2
I1210 12:32:17.987555  5292 net.cpp:411] pool5_2_conv5 -> pool5_2_conv5
I1210 12:32:18.017827  5292 net.cpp:150] Setting up pool5_2_conv5
I1210 12:32:18.017848  5292 net.cpp:157] Top shape: 1 512 122 122 (7620608)
I1210 12:32:18.017851  5292 net.cpp:165] Memory required for data: 1485486940
I1210 12:32:18.017859  5292 layer_factory.hpp:77] Creating layer pool5_2_conv5_relu
I1210 12:32:18.017868  5292 net.cpp:106] Creating Layer pool5_2_conv5_relu
I1210 12:32:18.017874  5292 net.cpp:454] pool5_2_conv5_relu <- pool5_2_conv5
I1210 12:32:18.017880  5292 net.cpp:411] pool5_2_conv5_relu -> pool5_2_conv5_relu
I1210 12:32:18.018067  5292 net.cpp:150] Setting up pool5_2_conv5_relu
I1210 12:32:18.018075  5292 net.cpp:157] Top shape: 1 512 122 122 (7620608)
I1210 12:32:18.018079  5292 net.cpp:165] Memory required for data: 1515969372
I1210 12:32:18.018081  5292 layer_factory.hpp:77] Creating layer pool5_2_conv6
I1210 12:32:18.018092  5292 net.cpp:106] Creating Layer pool5_2_conv6
I1210 12:32:18.018096  5292 net.cpp:454] pool5_2_conv6 <- pool5_2_conv5_relu
I1210 12:32:18.018101  5292 net.cpp:411] pool5_2_conv6 -> pool5_2_conv6
I1210 12:32:18.078953  5292 net.cpp:150] Setting up pool5_2_conv6
I1210 12:32:18.078974  5292 net.cpp:157] Top shape: 1 512 122 122 (7620608)
I1210 12:32:18.078976  5292 net.cpp:165] Memory required for data: 1546451804
I1210 12:32:18.078984  5292 layer_factory.hpp:77] Creating layer pool5_2_conv6_relu
I1210 12:32:18.078994  5292 net.cpp:106] Creating Layer pool5_2_conv6_relu
I1210 12:32:18.078999  5292 net.cpp:454] pool5_2_conv6_relu <- pool5_2_conv6
I1210 12:32:18.079005  5292 net.cpp:411] pool5_2_conv6_relu -> pool5_2_conv6_relu
I1210 12:32:18.079157  5292 net.cpp:150] Setting up pool5_2_conv6_relu
I1210 12:32:18.079165  5292 net.cpp:157] Top shape: 1 512 122 122 (7620608)
I1210 12:32:18.079167  5292 net.cpp:165] Memory required for data: 1576934236
I1210 12:32:18.079170  5292 layer_factory.hpp:77] Creating layer mask_deconv3
I1210 12:32:18.079179  5292 net.cpp:106] Creating Layer mask_deconv3
I1210 12:32:18.079182  5292 net.cpp:454] mask_deconv3 <- pool5_2_conv6_relu
I1210 12:32:18.079188  5292 net.cpp:411] mask_deconv3 -> mask_deconv3
I1210 12:32:18.079596  5292 net.cpp:150] Setting up mask_deconv3
I1210 12:32:18.079602  5292 net.cpp:157] Top shape: 1 256 244 244 (15241216)
I1210 12:32:18.079604  5292 net.cpp:165] Memory required for data: 1637899100
I1210 12:32:18.079609  5292 layer_factory.hpp:77] Creating layer mask_score
I1210 12:32:18.079618  5292 net.cpp:106] Creating Layer mask_score
I1210 12:32:18.079622  5292 net.cpp:454] mask_score <- mask_deconv3
I1210 12:32:18.079627  5292 net.cpp:411] mask_score -> mask_score
I1210 12:32:18.080747  5292 net.cpp:150] Setting up mask_score
I1210 12:32:18.080757  5292 net.cpp:157] Top shape: 1 8 244 244 (476288)
I1210 12:32:18.080760  5292 net.cpp:165] Memory required for data: 1639804252
I1210 12:32:18.080765  5292 layer_factory.hpp:77] Creating layer loss_mask
I1210 12:32:18.080771  5292 net.cpp:106] Creating Layer loss_mask
I1210 12:32:18.080775  5292 net.cpp:454] loss_mask <- mask_score
I1210 12:32:18.080778  5292 net.cpp:454] loss_mask <- mask_targets
I1210 12:32:18.080785  5292 net.cpp:411] loss_mask -> loss_mask
…
